models/emotion_model_2.tflite (tflite, 24448 bytes, 21 tensors)

arith.constant f2 [7, 32]
000000 67 9d 04 af d3 b2 61 b0 f9 8e f2 b1 3a a8 42 31
       -0.005276 -0.1096 -0.2133 -0.1368 -0.0004256 -0.1858 -0.03302 0.1643
000010 2f aa 24 35 11 32 a4 36 44 2f 49 34 99 a8 e6 2d
       -0.0483 0.3213 0.1896 0.415 0.1135 0.2678 -0.03592 0.09216
000020 56 ac 0f 2f 4a ae 42 b2 2c 29 84 a4 7d 30 f6 a8
       -0.06775 0.1103 -0.09827 -0.1956 0.0404 -0.01764 0.1403 -0.03876
000030 81 33 80 b0 16 30 92 b0 ab b4 c9 31 69 ac cb 25
       0.2345 -0.1406 0.1277 -0.1428 -0.2917 0.1808 -0.0689 0.02263
000040 20 2d 06 ba b0 a8 53 b6 cd 28 64 b4 4b b8 b4 2a
       0.0801 -0.753 -0.03662 -0.3953 0.0375 -0.2744 -0.5366 0.05237
000050 79 af 7e 28 44 32 22 b8 e0 31 7f 31 bd b2 2e aa
       -0.11676 0.0351 0.1958 -0.5166 0.1836 0.1718 -0.2106 -0.04828
000060 a8 b1 32 b6 7b b9 59 ae bf b2 d5 2f 06 b6 81 b0
       -0.1768 -0.3872 -0.685 -0.0992 -0.2108 0.1224 -0.3765 -0.1407
000070 d5 b2 3c b2 09 b3 89 b4 35 b0 5b b1 6b 31 35 35
       -0.2135 -0.1948 -0.2198 -0.2834 -0.1315 -0.1674 0.1693 0.3254
000080 3d b4 22 31 5d b6 54 31 be 35 9e a6 c6 af eb 26
       -0.265 0.1604 -0.3977 0.1665 0.359 -0.02585 -0.12146 0.02702
000090 f3 31 a3 27 d2 31 5e 31 19 ae 34 31 4d b4 ce b4
       0.1859 0.02983 0.1819 0.1677 -0.0953 0.1626 -0.2688 -0.3003
0000a0 04 ac 57 a9 f5 2c 45 a9 d6 29 bd ac fb ae a4 2f
       -0.06274 -0.04172 0.07745 -0.04117 0.0456 -0.07404 -0.1091 0.1194
0000b0 69 31 c2 2d 65 2c b1 b4 72 32 ff 32 d5 2c d9 20
       0.1691 0.08997 0.06866 -0.2932 0.2014 0.2186 0.0755 0.00947
0000c0 57 b1 a0 b3 92 b1 46 b5 77 b0 c7 b5 2b 33 15 34
       -0.1669 -0.2383 -0.1741 -0.3296 -0.1395 -0.361 0.224 0.2551
0000d0 97 ac 8c b4 69 b1 ce 33 fd 38 86 33 14 b0 00 b1
       -0.0717 -0.2842 -0.1691 0.2439 0.6235 0.2351 -0.1274 -0.1562
0000e0 c8 30 ff b0 0c 2e bf 35 1a b8 13 38 3e b0 32 18
       0.1494 -0.1561 0.0945 0.3591 -0.5127 0.5093 -0.1326 0.002048
0000f0 93 2f 9a 34 02 a2 dc b1 91 b4 d7 2d 3f 34 24 36
       0.11835 0.2876 -0.011734 -0.1831 -0.2854 0.09125 0.2654 0.3838
000100 51 af 0a a9 37 b0 71 32 76 b6 36 b0 89 2c 9f 2d
       -0.1143 -0.03937 -0.1317 0.2013 -0.4038 -0.1316 0.07086 0.0878
000110 2c b0 ed 34 9f b5 58 34 02 a6 a2 b3 94 a9 0e 21
       -0.1304 0.3079 -0.3513 0.2715 -0.02347 -0.2385 -0.04358 0.00987
000120 3a 1b a4 b6 1f 35 e1 b0 a5 af db 2d 2c 2d 4d b3
       0.003529 -0.415 0.32 -0.1525 -0.11945 0.0915 0.0808 -0.2281
000130 b3 36 c2 34 e6 32 91 2f 94 25 bc 30 10 32 90 2d
       0.4187 0.2974 0.2156 0.1182 0.02179 0.148 0.1895 0.0869
000140 be ad 6b b3 12 b6 a4 21 48 b1 f4 b6 a4 a8 24 35
       -0.0897 -0.2318 -0.3794 0.01102 -0.165 -0.4346 -0.03625 0.3213
000150 89 35 62 31 cd 2c cb 30 02 2f dd af 21 31 b9 b0
       0.346 0.1682 0.075 0.1498 0.1095 -0.12286 0.1603 -0.1476
000160 8d a9 5b b2 9c 34 5b af a8 b3 73 b2 ab 2e 65 b2
       -0.04337 -0.1986 0.288 -0.1149 -0.2393 -0.2015 0.1042 -0.1998
000170 fe ad 41 34 20 af 42 b1 0b 30 49 32 02 ac 17 b1
       -0.0936 0.2659 -0.1113 -0.1643 0.1263 0.1964 -0.0626 -0.159
000180 2c 36 f4 23 55 b3 6e 37 c5 34 94 9c e4 33 a4 ad
       0.3857 0.01553 -0.2291 0.4644 0.298 -0.00447 0.2466 -0.08813
000190 4a ac 38 b4 24 b8 98 32 7f ae 35 32 99 a1 10 27
       -0.067 -0.2637 -0.5176 0.206 -0.1015 0.194 -0.01093 0.02759
0001a0 b9 b1 05 34 a2 30 3a 31 15 25 49 ad 7a b3 67 36
       -0.1788 0.2512 0.1448 0.1633 0.01985 -0.0826 -0.2336 0.4001
0001b0 2b ac 6b b8 03 23 86 b8 3f 34 bb b5 7c ad 9d 32
       -0.0651 -0.5522 0.013695 -0.5654 0.2654 -0.3582 -0.0857 0.2067

arith.constant1 f2 [32, 64]
000000 ba 2c b7 b1 a2 ad 34 ac c3 31 43 b4 c3 22 10 a6
       0.07385 -0.1786 -0.088 -0.0657 0.18 -0.2664 0.01321 -0.02368
000010 30 b2 bb 21 ec a7 c2 2c 66 27 8b 2d 50 30 ad ac
       -0.1934 0.01119 -0.03094 0.07434 0.0289 0.0866 0.1348 -0.07306
000020 a7 ae 24 b5 2c b0 6f b3 40 b1 69 b8 78 af 15 b9
       -0.10394 -0.3213 -0.1304 -0.2323 -0.1641 -0.5513 -0.1167 -0.6353
000030 fb b2 9a aa 8b af 6c 2f f4 30 3a 2e b8 af aa ae
       -0.2181 -0.05157 -0.11786 0.11597 0.1548 0.0973 -0.1206 -0.1041
000040 f8 a7 ea b7 c5 b7 86 24 2c 2e 09 24 12 b0 51 33
       -0.03113 -0.4946 -0.4856 0.01767 0.09644 0.01576 -0.1272 0.2286
000050 6c b3 e6 2e ea 29 6d 29 7c 34 0c b4 ca b1 53 b5
       -0.2319 0.1078 0.0462 0.0424 0.2803 -0.253 -0.1809 -0.3328
000060 a2 a8 22 22 9b a8 d8 2c f7 28 59 29 f0 b1 66 30
       -0.0362 0.01198 -0.03598 0.0757 0.0388 0.04178 -0.1855 0.1375
000070 5d 30 5f ac fb ac 3a 2c 6c 1b 11 b2 8b ae 12 b4
       0.1364 -0.0683 -0.0778 0.06604 0.003624 -0.1896 -0.10223 -0.2544
000080 0a b2 0d 30 cc a5 32 ac 4f b1 eb a3 6a ad 98 af
       -0.1887 0.1266 -0.02264 -0.06555 -0.1659 -0.015465 -0.0846 -0.11865
000090 47 ac b2 af 47 af 20 31 dc ac f4 32 de 30 90 a4
       -0.06683 -0.12024 -0.1137 0.1602 -0.0759 0.2173 0.1521 -0.01782
0000a0 15 b4 c9 2d 04 b7 b7 b0 d7 31 72 b0 a1 2a 7f b8
       -0.2551 0.0904 -0.4385 -0.1473 0.1825 -0.1389 0.0518 -0.562
0000b0 34 b4 99 b2 c2 2c 02 ac 76 ad d4 b4 9a b5 d4 ae
       -0.2627 -0.2062 0.07434 -0.0626 -0.0853 -0.3018 -0.35 -0.1067
0000c0 26 b3 b6 af 4d 21 5e 29 1e ab 57 b0 6b b4 c8 26
       -0.2234 -0.1205 0.01035 0.04193 -0.0556 -0.1356 -0.2761 0.02649
0000d0 40 30 00 ae 4b 29 51 b4 f0 9f ef 30 77 b6 ac 25
       0.1328 -0.09375 0.04135 -0.2698 -0.00775 0.1542 -0.404 0.02216
0000e0 bd 2f 8b a9 7c 2a e9 b3 ea ac f0 b0 27 b0 56 2e
       0.1209 -0.0433 0.05066 -0.2472 -0.0768 -0.1543 -0.1298 0.099
0000f0 a6 b0 4f ac 43 31 b3 aa 1f b2 d7 28 79 aa d6 b0
       -0.1453 -0.0673 0.1644 -0.05234 -0.1913 0.0378 -0.05057 -0.1511
000100 ca 30 37 b1 36 b1 3d b4 8c a8 61 b0 13 2a bc 2c
       0.1497 -0.163 -0.1628 -0.265 -0.03552 -0.1368 0.04745 0.074
000110 8d ad 91 b5 d2 ac 0b 2f 31 b2 4d 26 10 b3 47 a2
       -0.08673 -0.348 -0.0753 0.11005 -0.1935 0.02461 -0.2207 -0.01226
000120 95 af e5 2a 90 a7 29 2c 63 b2 07 b4 a8 ad 45 ac
       -0.11847 0.05386 -0.02954 0.065 -0.1996 -0.2517 -0.0884 -0.0667
000130 96 b2 fe 30 49 25 d4 a9 fb b0 8f b3 56 2e 7b b4
       -0.2058 0.156 0.02065 -0.04553 -0.1556 -0.2362 0.099 -0.28
000140 2a b4 50 b3 67 ae 3f b4 57 24 75 ae fc ad 69 b0
       -0.2603 -0.2285 -0.10004 -0.2654 0.01695 -0.1009 -0.0935 -0.1378
000150 c2 ae 05 b3 60 b0 0e 31 4f ad 27 af ca b3 0d 33
       -0.1056 -0.2194 -0.1367 0.158 -0.08295 -0.11176 -0.2434 0.2203
000160 3c ad 88 b4 36 b3 47 b4 e4 30 9b 28 c0 33 d5 34
       -0.0818 -0.2832 -0.2253 -0.2673 0.1528 0.03598 0.2422 0.302
000170 88 29 c7 29 4c 34 35 b2 14 b1 b4 b3 34 b2 65 a8
       0.0432 0.04514 0.2686 -0.194 -0.1587 -0.2407 -0.1938 -0.03433
000180 1f 32 a3 37 77 35 90 34 08 b2 10 b6 bc 30 1d a4
       0.1913 0.4773 0.3416 0.2852 -0.1885 -0.379 0.148 -0.01607
000190 ce 33 c3 34 6c 2f 05 b1 c4 b5 d5 b4 39 36 f6 34
       0.2439 0.2976 0.11597 -0.1569 -0.3604 -0.302 0.389 0.31
0001a0 5f a8 c3 35 b6 b2 8f 2e b7 b1 a6 31 3c af b9 31
       -0.03415 0.36 -0.2097 0.1025 -0.1786 0.1765 -0.11304 0.1788
0001b0 64 30 c9 b4 6a b4 31 28 1c 33 bc b0 4b b3 46 29
       0.1372 -0.299 -0.276 0.03275 0.2222 -0.148 -0.2279 0.0412
0001c0 33 34 06 35 b0 2f a0 31 93 36 67 b5 89 ab 03 34
       0.2625 0.314 0.1201 0.1758 0.411 -0.3376 -0.05887 0.2507
0001d0 b8 29 09 b1 75 ac 7f 34 bc 33 78 34 64 33 d1 ac
       0.04468 -0.1573 -0.06964 0.281 0.2417 0.2793 0.231 -0.07526
0001e0 82 34 f3 34 e4 30 f5 b0 ce b3 93 2f 82 29 dd 2d
       0.2817 0.3093 0.1528 -0.1549 -0.2439 0.11835 0.04303 0.0916
0001f0 aa aa 97 35 1c 36 cc 30 3a ae c8 33 e9 34 d2 ac
       -0.05206 0.3494 0.3818 0.1499 -0.0973 0.2432 0.307 -0.0753

arith.constant2 f2 [32]
000000 bc 29 d0 b4 1f 2c f0 2e 19 28 27 2c 61 29 ca a8
       0.0448 -0.3008 0.0644 0.1084 0.032 0.0649 0.04202 -0.0374
000010 a8 2d 22 99 4f a8 f1 30 2d b0 f5 b4 2c b3 81 ad
       0.0884 -0.002506 -0.03366 0.1544 -0.1305 -0.3098 -0.2241 -0.086
000020 1d b5 26 ad 6c 31 3d a8 74 2e e7 29 60 b0 28 b4
       -0.3196 -0.08044 0.1694 -0.0331 0.1008 0.0461 -0.1367 -0.2598
000030 68 a8 27 36 21 32 67 32 03 2f 0c 32 ca a9 01 b1
       -0.03442 0.3845 0.1915 0.2001 0.10956 0.189 -0.04523 -0.1564

arith.constant3 f2 [3, 3, 32, 1]
000000 ba b0 3b b4 2a 2e 2f 1b 2f ad 33 31 3d 35 85 a6
       -0.1477 -0.2644 0.0963 0.003508 -0.081 0.1625 0.3274 -0.02547
000010 06 ac 88 a8 0c 2d 11 b4 e2 a8 92 b4 49 ad cb 2c
       -0.06287 -0.0354 0.07886 -0.2542 -0.03815 -0.2856 -0.0826 0.0749
000020 a6 a4 eb 26 ba 30 9a aa 30 2a 5b af 0d a7 33 ac
       -0.01816 0.02702 0.1477 -0.05157 0.04834 -0.1149 -0.02754 -0.0656
000030 c8 ac ef 33 02 b2 9e b3 34 b5 b7 31 92 b0 3e b0
       -0.0747 0.2479 -0.1877 -0.238 -0.3252 0.1786 -0.1428 -0.1326
000040 31 ae d1 b4 93 2f 67 ab 9e 2b ab 32 fa b4 b6 28
       -0.09674 -0.301 0.11835 -0.05783 0.0595 0.2084 -0.311 0.0368
000050 92 31 72 ac 9d 33 03 b2 c1 27 73 a8 91 a7 e6 28
       0.1741 -0.06946 0.2379 -0.1879 0.03029 -0.03476 -0.02956 0.03827
000060 86 b2 f1 2d 04 2f 7f 29 68 30 ac a8 a4 aa 63 ae
       -0.2039 0.09283 0.1096 0.04294 0.1377 -0.0365 -0.05188 -0.0998
000070 d6 b0 97 34 ec ad 8f b3 76 af 9b 34 74 b2 44 b1
       -0.1511 0.2869 -0.0925 -0.2362 -0.1166 0.2878 -0.2017 -0.1646
000080 33 a8 23 b4 68 29 2a 2e 0d a8 81 31 49 b0 a7 26
       -0.0328 -0.2585 0.04224 0.0963 -0.03165 0.172 -0.1339 0.02599
000090 8b 2f 68 a9 22 31 74 b4 72 27 5a b3 43 30 e1 2c
       0.11786 -0.04224 0.1604 -0.2783 0.02908 -0.2297 0.1332 0.07623
0000a0 c7 b1 bd 29 a9 2e 4b 99 e5 33 41 b1 89 23 18 a4
       -0.1805 0.04483 0.10406 -0.002584 0.2467 -0.1642 0.01472 -0.01599
0000b0 19 b3 e9 34 c2 b0 83 b2 74 b2 ed 32 89 ac f3 b2
       -0.2218 0.307 -0.1487 -0.2035 -0.2017 0.2164 -0.07086 -0.2172
0000c0 4e b0 5a b3 6e 30 22 2e 81 b0 db 2d 5d 32 39 ae
       -0.1345 -0.2297 0.1384 0.0958 -0.1407 0.0915 0.1989 -0.0972
0000d0 c4 b1 de 2e 94 ab 8b 2d ef b1 01 b1 f2 b1 7c ac
       -0.1802 0.1073 -0.0592 0.0866 -0.1854 -0.1564 -0.1858 -0.07007
0000e0 64 a0 9e b3 c3 30 41 af e9 a8 30 b0 7e 27 ea b0
       -0.008575 -0.238 0.1488 -0.11334 -0.03836 -0.1309 0.02927 -0.1536
0000f0 df ae ad 2d 59 ad 3c 2f 3c 25 11 9e a7 2b 8c b0
       -0.10736 0.0887 -0.08356 0.11304 0.02045 -0.005924 0.05978 -0.1421
000100 69 ad 17 b1 e0 33 10 30 69 32 f5 2f 27 b0 8f b1
       -0.08453 -0.159 0.2461 0.127 0.2003 0.1243 -0.1298 -0.1737
000110 f0 2c 06 31 3e 2a 78 ac 8b ad 6b a7 3f b4 fc b2
       0.07715 0.157 0.04877 -0.0698 -0.0866 -0.02898 -0.2654 -0.2183
000120 3c ae 9d ae 7d 30 88 b0 b0 2f fa ae e5 ab 69 b1
       -0.0974 -0.10333 0.1403 -0.1416 0.1201 -0.109 -0.06168 -0.1691
000130 2e a5 ab 31 52 32 0f 2e 72 29 8e 2e 01 b0 7f b0
       -0.02023 0.1771 0.1975 0.09467 0.04254 0.1024 -0.1251 -0.1405
000140 0f ad 68 b2 e5 2f 5a 32 b6 2d 53 a0 01 2c 5d ad
       -0.07904 -0.2002 0.12335 0.1985 0.08923 -0.008446 0.06256 -0.0838
000150 87 af 19 30 da 2f e3 2a 7c b1 f0 b0 27 a8 4f 2f
       -0.1176 0.128 0.1227 0.0538 -0.1714 -0.1543 -0.03244 0.1142
000160 c0 b1 a8 af 54 2a 18 ab 8c 31 fb b2 dd 2d 07 ac
       -0.1797 -0.1196 0.04944 -0.05542 0.1733 -0.2181 0.0916 -0.0629
000170 e1 2e 2b 31 06 30 8f 2f 87 2b 4b 30 76 2c a6 af
       0.1075 0.1615 0.1257 0.1181 0.0588 0.1342 0.0697 -0.1195
000180 14 2c ef b1 38 2f 7f 30 6d a9 78 af e1 2b 82 b0
       0.0637 -0.1854 0.1128 0.1405 -0.0424 -0.1167 0.06155 -0.1409
000190 f9 b1 66 b0 eb ac 8e 30 45 b0 a2 a7 5b 9d 6a b0
       -0.1866 -0.1375 -0.07684 0.1423 -0.1334 -0.02982 -0.00523 -0.138
0001a0 8b b2 62 30 7c 31 74 b1 8f b3 5d 2f 70 a6 95 b4
       -0.2045 0.137 0.1714 -0.1704 -0.2362 0.11505 -0.02515 -0.2864
0001b0 15 9a 89 a5 db 9e 06 aa 14 2f e8 ae 50 32 8a 2c
       -0.00297 -0.02162 -0.006695 -0.04706 0.1106 -0.1079 0.1973 0.0709
0001c0 18 34 cb b1 73 30 3e 31 23 32 c2 29 32 b0 00 b1
       0.2559 -0.181 0.139 0.1638 0.1918 0.04498 -0.1311 -0.1562
0001d0 be 11 4d b2 de b1 59 1f 77 b1 58 90 6e b0 b3 b4
       0.000701 -0.1969 -0.1833 0.007175 -0.1708 -0.0005302 -0.1384 -0.2937
0001e0 b7 b2 d3 31 a4 32 17 b1 1a 29 1b 25 d9 b6 7b b5
       -0.2098 0.182 0.2075 -0.159 0.03986 0.01994 -0.428 -0.3425
0001f0 79 2e ef 2c a4 32 0d 28 2b 2a bf 1e f0 b0 e5 2d
       0.10114 0.0771 0.2075 0.03165 0.0482 0.006588 -0.1543 0.0921

arith.constant5 f2 [5, 5, 1, 1]
000000 ba 2b 05 b4 1c 35 89 36 ba b7 e1 b2 60 b3 95 ac
       0.06036 -0.2512 0.3193 0.4084 -0.483 -0.215 -0.2305 -0.0716
000010 23 34 4f b1 3e ac f9 30 d2 b3 98 36 fa b5 5a 32
       0.2585 -0.1659 -0.0663 0.1554 -0.2444 0.412 -0.3735 0.1985
000020 99 2c 6a b4 f0 ae 0f 32 9c b3 6d 34 2c 31 c0 32
       0.07184 -0.276 -0.1084 0.1893 -0.2378 0.2766 0.1616 0.2109
000030 71 2c
       0.0694

arith.constant6 f2 [16]
000000 2c a4 93 a6 c5 29 37 29 61 30 2a 2c 9f 2c c0 a9
       -0.0163 -0.02568 0.04507 0.04074 0.1368 0.06506 0.0722 -0.04492
000010 d9 a0 40 2e 4e 2e ba a5 af ac 65 21 c6 a5 a3 2e
       -0.00947 0.09766 0.0985 -0.02237 -0.0732 0.01054 -0.02255 0.1037

arith.constant7 f2 [3, 3, 16, 1]
000000 60 36 a3 35 15 b4 96 ae f9 b3 96 b0 bc b7 98 ac
       0.3984 0.3523 -0.2551 -0.1029 -0.2491 -0.1433 -0.4834 -0.0718
000010 0b b1 1a 34 ba ad b4 25 4d 26 40 ae c1 b2 a2 b2
       -0.1576 0.2563 -0.0895 0.02228 0.02461 -0.09766 -0.211 -0.2073
000020 5c 23 1f 34 cb 30 58 b0 da b3 98 b5 2e b1 46 b8
       0.01437 0.2576 0.1498 -0.1357 -0.2454 -0.3496 -0.1619 -0.534
000030 ef 24 80 34 5a 32 4c 34 4d b5 d5 2e 86 28 d6 ae
       0.01927 0.2812 0.1985 0.2686 -0.3313 0.10675 0.03534 -0.1068
000040 13 36 d6 36 b4 b2 39 30 03 b5 fa b1 4e b0 1a ae
       0.3796 0.4272 -0.2095 0.132 -0.3132 -0.1868 -0.1345 -0.09534
000050 11 ae 66 32 63 b1 3d 15 fe 21 ec b0 6c b6 1f b3
       -0.0948 0.2 -0.1683 0.001279 0.0117 -0.1538 -0.4014 -0.2225
000060 c2 31 24 2d 8e 2b 61 2c b6 24 1c 2f 06 ac 2b 2a
       0.1799 0.0803 0.05902 0.0684 0.0184 0.1111 -0.06287 0.0482
000070 09 b4 7a 2f 27 a6 8c 2d 85 b0 94 a4 92 ac e2 28
       -0.2522 0.1168 -0.02403 0.0867 -0.1412 -0.01788 -0.0714 0.03815
000080 06 29 2f b3 a1 34 15 a7 61 29 21 35 5b b1 ba 2b
       0.03925 -0.2245 0.2893 -0.02766 0.04202 0.3206 -0.1674 0.06036
000090 bc b2 4e 33 2f 37 e2 25 8e b1 89 23 1b 2e 61 32
       -0.2104 0.2283 0.449 0.02298 -0.1736 0.01472 0.0954 0.1993
0000a0 1d b2 a4 a5 2b 24 63 32 12 2f 54 a0 5d 36 19 34
       -0.191 -0.02203 0.01628 0.1996 0.1105 -0.00845 0.3977 0.256
0000b0 51 b6 ee 2e 2c b1 2c 30 c1 b2 c3 aa 73 b4 40 30
       -0.3948 0.1083 -0.1616 0.1304 -0.211 -0.05283 -0.278 0.1328
0000c0 69 31 54 2f 40 b0 10 31 56 30 4a 31 09 b4 1d af
       0.1691 0.1145 -0.1328 0.1582 0.1355 0.1653 -0.2522 -0.11115
0000d0 1a a0 4d 23 f2 2a b1 30 d8 ab 48 2c 0e a5 fd 32
       -0.00801 0.01426 0.05426 0.1466 -0.06128 0.0669 -0.01974 0.2184
0000e0 bd 27 53 ab 18 b0 54 34 1c 2b a0 32 1d 30 94 b2
       0.03023 -0.05722 -0.1279 0.2705 0.05554 0.207 0.1285 -0.2056
0000f0 ac 30 a8 2f d9 2b 5e 2d 59 2a 4a 35 89 2d 63 29
       0.146 0.1196 0.0613 0.08386 0.0496 0.3306 0.0865 0.04208
000100 69 b1 e4 99 51 b0 90 35 38 2d 7a 2a 56 25 a6 ae
       -0.1691 -0.002876 -0.1349 0.3477 0.08154 0.0506 0.02084 -0.1039
000110 1c a1 92 a5 8d af 8b 31 e4 b5 53 34 eb b0 5d 33
       -0.00998 -0.02176 -0.118 0.1732 -0.3682 0.2703 -0.1537 0.2301

arith.constant8 f2 [32]
000000 f7 b2 c7 b2 b6 b4 2a 30 57 ac a3 b6 14 b0 f7 a8
       -0.2177 -0.2118 -0.2944 0.1301 -0.0678 -0.4148 -0.1274 -0.0388
000010 c6 2c 4c 33 a9 34 3a 38 a0 30 73 32 63 18 c0 b4
       0.0746 0.228 0.2913 0.5283 0.1445 0.2015 0.002142 -0.2969
000020 a9 b4 28 b4 02 29 94 34 01 ae 26 31 c9 2e 1e ab
       -0.2913 -0.2598 0.03912 0.2861 -0.0938 0.1609 0.106 -0.0556
000030 4e af 76 37 54 b2 ee 25 15 b3 5b ac e4 b0 24 ab
       -0.11414 0.4663 -0.1978 0.02316 -0.2213 -0.06805 -0.1528 -0.0558

arith.constant9 f2 [7]
000000 b9 26 01 b9 87 a6 34 31 e2 26 00 30 6d b1
       0.02626 -0.6255 -0.0255 0.1626 0.02689 0.125 -0.1696

arith.constant10 f2 [64]
000000 26 b6 95 b1 2e 2f 1a b2 03 a9 2d b6 33 b1 18 b4
       -0.3843 -0.1744 0.1122 -0.1907 -0.03915 -0.386 -0.1625 -0.2559
000010 3d b0 10 a6 24 b5 2f b3 f8 b2 86 b0 54 ab 81 a4
       -0.1324 -0.02368 -0.3213 -0.2245 -0.2178 -0.1414 -0.05725 -0.0176
000020 f1 2c c9 b2 0d ae 92 b2 0b b0 f7 ac 8a 98 f3 aa
       0.0772 -0.212 -0.09454 -0.2053 -0.1263 -0.0776 -0.002216 -0.0543
000030 56 ac 73 b2 e8 a6 36 34 87 32 fe 26 0e b5 05 20
       -0.06775 -0.2015 -0.02698 0.2632 0.204 0.02731 -0.316 0.00785
000040 52 b0 f3 25 d6 b4 85 1f b5 b1 fa ab 8f aa ed a4
       -0.135 0.02324 -0.3022 0.007343 -0.1783 -0.06232 -0.05124 -0.01924
000050 5e b2 2d ac 75 2a 82 ac 59 ac 11 b2 0c 32 c6 ad
       -0.199 -0.06525 0.05045 -0.07043 -0.06793 -0.1896 0.189 -0.0902
000060 99 b0 e7 b4 bb b0 ee 2a 8e b5 00 b0 6a b5 4c ac
       -0.1437 -0.3064 -0.1478 0.05414 -0.3472 -0.125 -0.3384 -0.06714
000070 a6 b2 bb b4 44 b3 d2 b3 f8 b3 a2 b2 e8 ad f4 b2
       -0.2078 -0.2957 -0.227 -0.2444 -0.249 -0.2073 -0.0923 -0.2173

arith.constant11 f2 [1, 1, 32, 64]
000000 0a a8 5e b1 a9 b0 85 2d 4f b2 41 30 1a 30 de b3
       -0.03156 -0.1677 -0.1456 0.08624 -0.1971 0.1329 0.1282 -0.2458
000010 f2 2c c7 18 3c 30 82 b4 9e b4 bf ae 89 31 be 2a
       0.0773 0.002333 0.1323 -0.2817 -0.2886 -0.1054 0.173 0.05267
000020 f0 b1 8e ab 89 ae 93 2b b4 b4 dc ad a2 a7 15 2f
       -0.1855 -0.05902 -0.1021 0.05917 -0.294 -0.09155 -0.02982 0.11066
000030 30 b1 91 2c e9 b3 91 34 ac 28 6f b2 9f b0 47 a5
       -0.1621 0.07135 -0.2472 0.2854 0.0365 -0.201 -0.1444 -0.02061
000040 53 33 c6 34 43 ac 94 ae 04 b3 74 b4 78 34 9d 2d
       0.2289 0.2983 -0.0666 -0.1028 -0.2192 -0.2783 0.2793 0.0877
000050 7b b3 f6 aa dc b4 d6 ab a1 ae 26 26 17 30 05 aa
       -0.2338 -0.05438 -0.3037 -0.06122 -0.1036 0.02402 0.1278 -0.04703
000060 0b a4 5d 35 d1 9c 45 aa 87 35 42 34 19 b5 37 b2
       -0.0158 0.3352 -0.004704 -0.04898 0.3455 0.266 -0.3186 -0.1942
000070 84 aa 42 29 46 b0 9a 34 4a b5 a8 a4 4c ae ba b0
       -0.0509 0.04108 -0.1335 0.2876 -0.3306 -0.01819 -0.0984 -0.1477
000080 27 37 ff 2c 12 b4 d1 35 1f 37 eb 26 8c 35 27 b0
       0.447 0.07806 -0.2544 0.3635 0.445 0.02702 0.3467 -0.1298
000090 1a 36 ff 32 40 34 18 34 b8 30 a0 32 18 35 3a 32
       0.3813 0.2186 0.2656 0.2559 0.1475 0.207 0.3184 0.1946
0000a0 53 35 1e 31 45 30 1b 2e 55 39 01 b3 c0 2c 71 30
       0.3328 0.1599 0.1334 0.0954 0.6665 -0.2189 0.0742 0.1388
0000b0 93 2a 6a af 43 35 e1 27 c5 27 3e 33 3c a8 60 24
       0.05136 -0.11584 0.3289 0.03078 0.03035 0.2263 -0.03308 0.01709
0000c0 0e 33 f7 29 bc b0 5d b0 e5 33 e0 2e f7 34 3b 34
       0.2205 0.0466 -0.148 -0.1364 0.2467 0.1074 0.3103 0.2644
0000d0 35 ac 5c 2c c0 25 d0 32 2c 31 07 32 6e ab 84 36
       -0.06573 0.0681 0.02246 0.2129 0.1616 0.1884 -0.05804 0.4072
0000e0 a6 34 c0 b3 86 af c3 30 0a ab 1d 35 77 b0 08 a9
       0.2905 -0.2422 -0.11755 0.1488 -0.055 0.3196 -0.1395 -0.0393
0000f0 59 33 61 31 f7 34 1b 2f e4 21 c0 30 4b 31 b6 a9
       0.2296 0.1681 0.3103 0.111 0.011505 0.1484 0.1654 -0.04462
000100 d2 27 db 2c e8 28 c2 af 89 b2 f8 1b 57 b4 ec b1
       0.03055 0.07587 0.03833 -0.1212 -0.2042 0.003891 -0.2712 -0.185
000110 ac ac 2f b0 a6 2c ac 32 72 b5 33 ad 4d b7 49 2f
       -0.073 -0.1307 0.07263 0.2085 -0.3403 -0.08124 -0.4563 0.11383
000120 aa b5 c4 a9 4c b6 26 31 7c b2 c8 ae b1 b4 76 36
       -0.354 -0.04504 -0.3936 0.1609 -0.2026 -0.10596 -0.2932 0.4038
000130 1b 20 6d ad 08 b2 27 b5 9d b0 0f 2c 07 28 19 b3
       0.00802 -0.0848 -0.1885 -0.322 -0.1442 0.0634 0.03146 -0.2218
000140 4b 32 7f 28 68 ac e6 aa 03 a8 93 b0 be ab 81 b7
       0.1967 0.03513 -0.06885 -0.0539 -0.03134 -0.143 -0.0605 -0.469
000150 a6 30 0b b6 dd b6 40 31 7b ab da aa 62 31 a9 b3
       0.1453 -0.3777 -0.429 0.1641 -0.05844 -0.05353 0.1682 -0.2394
000160 85 a9 2a 27 05 31 e9 b4 b5 ac 3e b0 af b2 5c b0
       -0.04312 0.02798 0.1569 -0.307 -0.07355 -0.1326 -0.2089 -0.1362
000170 a5 1f 24 a6 b5 2c 25 b4 44 2d 70 af be 2d 99 b2
       0.007465 -0.02399 0.07355 -0.259 0.0823 -0.1162 0.0897 -0.2062
000180 43 30 45 34 2e af ca 0a 57 32 9c b4 fd 31 5f b2
       0.1332 0.2668 -0.1122 0.0002072 0.1981 -0.288 0.1871 -0.1991
000190 64 2f 2d 28 8f 2e c3 2b 5c b3 f3 2c b3 35 17 2d
       0.1155 0.03262 0.1025 0.06064 -0.23 0.07733 0.3562 0.0795
0001a0 50 32 15 b3 80 a5 b7 b4 44 31 ec ad 29 ac 94 a0
       0.1973 -0.2213 -0.02148 -0.2947 0.1646 -0.0925 -0.065 -0.00894
0001b0 41 b0 54 b5 4e 1c 2c ab 63 2f f1 26 c8 b5 12 b4
       -0.1329 -0.333 0.004204 -0.05603 0.1154 0.02711 -0.3613 -0.2544
0001c0 31 b2 a7 ab a6 b6 db b3 4a 2d b7 b8 ec aa 2d 2e
       -0.1935 -0.05978 -0.4155 -0.2455 0.08264 -0.5894 -0.05408 0.0965
0001d0 30 32 b9 30 fb 34 ef 30 85 b0 eb b0 b1 a8 52 b5
       0.1934 0.1476 0.3113 0.1542 -0.1412 -0.1537 -0.03665 -0.3325
0001e0 c8 b3 ac 35 a2 38 c3 a0 17 26 64 a5 0d b8 d1 b2
       -0.2432 0.3545 0.579 -0.0093 0.02379 -0.02106 -0.5063 -0.213
0001f0 e0 33 39 ad 3b b6 d8 2f 8e 2d e8 b6 a8 28 89 ad
       0.2461 -0.0816 -0.3894 0.12256 0.0868 -0.4316 0.03638 -0.0865

arith.constant12 f2 [16]
000000 6d a8 93 2f f9 33 2f 2a ce 2d 3a 2c 46 b0 4f 32
       -0.03458 0.11835 0.2491 0.0483 0.0907 0.06604 -0.1335 0.1971
000010 2d 31 21 a5 9b 30 2a 30 e7 af 56 a5 f6 30 00 9e
       0.1617 -0.02003 0.1439 0.1301 -0.1235 -0.02084 0.155 -0.00586

arith.constant13 f2 [1, 1, 1, 16]
000000 54 24 29 30 60 37 d1 b9 30 34 58 b9 0a b7 c5 b7
       0.0169 0.13 0.461 -0.727 0.2617 -0.668 -0.44 -0.4856
000010 c8 35 d1 ba 7a 34 b6 35 b2 b8 37 39 bf b6 9c 34
       0.3613 -0.852 0.2798 0.357 -0.587 0.652 -0.4216 0.288

arith.constant14 f2 [32]
000000 a4 a6 e5 b0 17 b2 1a ad 7d ac f0 9c 31 2f 18 b4
       -0.02594 -0.153 -0.1903 -0.0797 -0.0701 -0.00482 0.11237 -0.2559
000010 13 93 88 26 9e a9 09 ac 4e ac 6a b4 79 2e 05 2e
       -0.0008636 0.02551 -0.04388 -0.06305 -0.06726 -0.276 0.10114 0.09406
000020 36 2f ce 15 70 b4 8e 1c 13 b1 2f af be ac 67 af
       0.1127 0.001417 -0.2773 0.004448 -0.1586 -0.11224 -0.0741 -0.11566
000030 79 2e a3 2e 8f 2b fc 29 8c a9 9e 99 61 b2 df 21
       0.10114 0.1037 0.05905 0.04675 -0.04333 -0.002743 -0.1993 0.01147

arith.constant15 f2 [1, 1, 16, 32]
000000 17 34 3e b9 23 99 18 2c 50 ac d4 ab 77 2d 7e af
       0.2556 -0.6553 -0.002508 0.06396 -0.0674 -0.06116 0.0854 -0.11707
000010 e2 a8 2a 34 77 2a d1 36 6b 2f d4 b6 47 a4 25 34
       -0.03815 0.2603 0.0505 0.426 0.1159 -0.4268 -0.01671 0.259
000020 9b 2f f3 9d 97 b5 40 35 ce b2 38 2e 1c b3 07 b6
       0.11884 -0.00581 -0.3494 0.3281 -0.2126 0.09717 -0.2222 -0.3767
000030 c9 b1 44 b7 ea 2e dd 31 d8 b2 04 ab d9 af 2b ac
       -0.1808 -0.454 0.10803 0.1832 -0.2139 -0.0548 -0.1226 -0.0651
000040 d8 33 82 b7 bd a0 65 ae 10 a2 0c 31 ba b5 43 b1
       0.2451 -0.4692 -0.009254 -0.0999 -0.01184 0.1577 -0.358 -0.1644
000050 36 b1 65 29 e1 32 5f b0 e8 24 90 b0 60 34 32 9f
       -0.1628 0.04214 0.215 -0.1366 0.01917 -0.1426 0.2734 -0.007027
000060 cb b2 5c 2d 31 32 7a 33 c5 b8 8c 2e 66 ac c8 b4
       -0.2123 0.08374 0.1935 0.2336 -0.596 0.1023 -0.0687 -0.2988
000070 b0 ac 83 b8 71 30 4b 33 17 ae 3c 30 84 98 de 2c
       -0.07324 -0.564 0.1388 0.2279 -0.09515 0.1323 -0.002205 0.07605
000080 cf b8 3b 31 de b3 b5 30 9a b4 25 b0 f8 20 ef ac
       -0.601 0.1635 -0.2458 0.1471 -0.2876 -0.1295 0.009705 -0.0771
000090 6c ad 73 34 7e b1 53 33 c8 af 8a 34 0a b8 1f 29
       -0.0847 0.278 -0.1716 0.2289 -0.1216 0.2837 -0.505 0.04
0000a0 b3 30 8e 2a ee a3 69 27 42 b2 b1 ac e2 b6 69 34
       0.1469 0.0512 -0.01549 0.02895 -0.1956 -0.0733 -0.4302 0.2756
0000b0 83 2d 5c 34 7e b4 96 b0 49 28 b9 31 50 b1 47 b3
       0.0861 0.2725 -0.2808 -0.1433 0.03348 0.1788 -0.166 -0.2274
0000c0 70 32 6f a5 69 ad a7 2c 20 2b ca b3 e0 35 19 b5
       0.2012 -0.02122 -0.08453 0.0727 0.05566 -0.2434 0.3672 -0.3186
0000d0 bc ac ea b8 45 30 aa 1c dc a9 67 a8 73 b4 f9 36
       -0.074 -0.6143 0.1334 0.004555 -0.04578 -0.0344 -0.278 0.4358
0000e0 1a b2 46 ab aa b6 95 b4 f3 aa df b9 44 b2 cb 34
       -0.1907 -0.05682 -0.4165 -0.2864 -0.0543 -0.734 -0.1958 0.2996
0000f0 45 ba e3 2e d7 2b a7 b1 3f 32 87 35 68 34 bd b7
       -0.7837 0.1076 0.06125 -0.1766 0.1952 0.3455 0.2754 -0.4836
000100 b1 ae a6 34 dd ad d2 b3 0a ae ef b1 39 30 df 2e
       -0.10455 0.2905 -0.0916 -0.2444 -0.09436 -0.1854 0.132 0.10736
000110 78 2b 8c af 89 b3 33 35 bd ae 86 b3 61 b7 5e aa
       0.05835 -0.1179 -0.2355 0.325 -0.1053 -0.2351 -0.4612 -0.04974
000120 3a 34 59 b2 96 a5 f4 36 cf 36 b1 af 52 31 bf a6
       0.2642 -0.1984 -0.02182 0.4346 0.4255 -0.1202 0.1663 -0.02635
000130 d6 b1 b8 36 99 33 bc b7 43 37 86 a8 ab b4 11 b0
       -0.1824 0.42 0.2374 -0.4834 0.4539 -0.03534 -0.2917 -0.1271
000140 fc b4 b7 2d 43 2c e3 31 6d 3a 20 33 3a 37 d7 b7
       -0.3115 0.0893 0.0666 0.184 0.803 0.2227 0.4517 -0.49
000150 4a 32 c8 b5 1b 36 82 b3 60 34 9e b5 fe 29 9a a8
       0.1965 -0.3613 0.3816 -0.2346 0.2734 -0.351 0.0468 -0.03595
000160 7b 34 7d a3 19 a8 40 a5 ce af a6 b6 7c 19 69 b0
       0.28 -0.014626 -0.032 -0.02051 -0.12195 -0.4155 0.002678 -0.1378
000170 5e b2 7a 33 35 2f 59 ad 27 32 26 aa 98 33 aa b3
       -0.199 0.2336 0.1126 -0.08356 0.1923 -0.04803 0.2373 -0.2395
000180 2d 32 61 3a eb 2d 31 a6 86 a5 fc 33 78 30 9d b0
       0.193 0.7974 0.09247 -0.02419 -0.02158 0.2495 0.1396 -0.1442
000190 33 2f 1d ae 46 b1 aa b1 8e 18 9d b1 cb a7 14 b0
       0.1125 -0.0955 -0.1648 -0.177 0.002224 -0.1754 -0.03044 -0.1274
0001a0 88 21 56 2e c2 ac 4d 33 ba 33 d5 b1 2a 25 45 35
       0.0108 0.099 -0.07434 0.2281 0.2415 -0.1823 0.02017 0.3293
0001b0 a4 30 ff 35 de b2 1b b1 6e 1c e6 32 c5 a8 80 aa
       0.145 0.3748 -0.2146 -0.1595 0.004326 0.2156 -0.03726 -0.05078
0001c0 48 ad cc 35 40 b5 93 2d 69 9d 37 34 3d b4 67 26
       -0.0825 0.3623 -0.3281 0.0871 -0.005283 0.2634 -0.265 0.02501
0001d0 da 38 ab 30 35 38 85 b6 b0 37 21 b5 79 b6 7b 2d
       0.6064 0.1459 0.526 -0.4075 0.4805 -0.3206 -0.4045 0.08563
0001e0 f4 2a 31 b1 50 31 dd 34 72 27 89 30 18 a8 e4 37
       0.05432 -0.1622 0.166 0.304 0.02908 0.1417 -0.03198 0.4932
0001f0 be 2e 75 2b 3a b6 04 b7 ba aa e8 36 4b 97 ca af
       0.10535 0.05826 -0.3892 -0.4385 -0.05255 0.4316 -0.0017805 -0.1217

arith.constant16 f4 [64]
000000 8c 20 8b be f4 4e 96 be 4f 5e 26 bf 38 b1 b5 be
       -0.2717327 -0.2935711 -0.64987653 -0.3548677
000010 e2 af ad be f0 c1 f8 be 46 9e 68 be c4 0b 20 bf
       -0.3392325 -0.48585463 -0.22716627 -0.6251795
000020 78 c8 6b be a2 3f 8b be b6 b0 b3 be 58 a0 cf be
       -0.23025692 -0.27196985 -0.35095757 -0.4055202
000030 92 d9 80 be 1b 45 93 be 9d 9b 0c bf ad 91 b7 be
       -0.25165993 -0.2876366 -0.5492495 -0.3585333
000040 d0 e7 94 be 5b c9 8b be fc eb d5 be f6 39 11 bf
       -0.2908311 -0.2730206 -0.41781604 -0.56729066
000050 6f 1c c4 be f9 eb 4a bf 6c 9d 8d be e8 ac 4f bf
       -0.38302943 -0.79266316 -0.27659166 -0.8112321
000060 2a ad ef be f6 d2 c8 be 88 af a8 be 96 1c 0c bf
       -0.468118 -0.3922345 -0.3294642 -0.5473112
000070 82 d6 e4 be 0e 70 bf be 61 64 9a be 6b c7 09 bf
       -0.44694906 -0.37390178 -0.30154708 -0.5381991
000080 d0 c0 10 bf 71 a3 8b bf 64 94 05 bf 2a ea 88 be
       -0.5654421 -1.0909253 -0.5217955 -0.26741153
000090 b2 94 53 be e9 a4 ac be e0 27 73 be ba f2 b5 be
       -0.20662192 -0.33719566 -0.2374568 -0.35536748
0000a0 18 f2 02 bf b4 9c 12 bf b4 f5 8b be 86 73 74 be
       -0.51150656 -0.5727036 -0.27335894 -0.23872194
0000b0 e2 e5 7e be fa d8 be be e7 04 59 bf f2 c4 82 be
       -0.24892381 -0.37274915 -0.84773105 -0.25540882
0000c0 65 27 c8 be 41 68 03 bf aa ac 2b bf 40 cc bc be
       -0.39092556 -0.51330954 -0.6706034 -0.3687458
0000d0 6d ce c4 be 4e 99 f6 be 8c 5d f1 be 3e da 9e be
       -0.3843874 -0.48163837 -0.47141683 -0.3102588
0000e0 96 f0 b7 be 64 3a db be c5 e9 a5 be 83 d2 8a be
       -0.3592574 -0.42817986 -0.32404914 -0.27113733
0000f0 88 2f a7 be c7 2d c5 be 9e 18 82 be 86 5c 1b bf
       -0.3265345 -0.38511488 -0.25409406 -0.60688055

arith.constant17 f4 [64]
000000 cd 65 89 41 a7 38 ab 41 60 fb 6e 3f 8d 80 4a 41
       17.174707 21.402662 0.9335232 12.656384
000010 b7 d0 08 41 db c1 db 40 2a 1f 9e 41 fe fe ed 3f
       8.550956 6.867414 19.765217 1.8593442
000020 1f ad 59 41 bb 53 35 41 75 93 0c 41 33 e1 fd 40
       13.604766 11.332942 8.786 7.93374
000030 36 b3 ac 41 cb 18 91 41 71 77 9b 40 9b 1d 4d 41
       21.587505 18.137106 4.8583302 12.819728
000040 fa 5a 1f 41 ba 14 3a 41 18 bc aa 40 26 d8 a8 40
       9.959711 11.63006 5.3354607 5.2763853
000050 16 a6 fe 40 ce f6 9c 3f 71 a9 18 41 85 6e b2 3f
       7.957774 1.2262819 9.541368 1.3939978
000060 e9 54 22 41 68 f7 0c 41 02 15 27 41 a3 7a 1a 40
       10.14573 8.810402 10.442629 2.4137352
000070 1e 92 8d 40 a0 1b 08 41 c2 51 5d 41 c8 06 17 40
       4.4240866 8.506744 13.83246 2.359789
000080 b7 d8 a1 40 66 7d 9d 3f 20 10 a3 40 84 ea ad 41
       5.0577044 1.2303894 5.0957184 21.73951
000090 d6 e2 ba 41 80 d9 9c 41 03 f9 9c 41 77 28 61 41
       23.36076 19.606201 19.621588 14.072379
0000a0 6a 28 f1 40 f3 e3 84 40 c9 a0 09 41 9e 8a 6c 41
       7.5361834 4.152826 8.601754 14.783842
0000b0 00 2f 8f 41 a1 57 df 40 77 c7 9d 3f 53 40 be 41
       17.89795 6.979447 1.2326497 23.781408
0000c0 c2 9e 4d 41 68 5f d0 40 20 e6 ed 3f cc f0 a4 40
       12.851259 6.5116463 1.8585854 5.154394
0000d0 96 ed 1c 41 48 03 0f 41 4f f8 74 40 a3 0e b2 41
       9.808004 8.938301 3.8276556 22.257147
0000e0 d3 0a 1f 41 f4 68 ee 40 24 c3 1d 41 f6 7c 8b 41
       9.940143 7.4503117 9.860142 17.436016
0000f0 d0 e3 fe 40 35 12 12 41 15 c1 8d 41 bc e3 ff 3f
       7.965309 9.129445 17.719278 1.9991374

arith.constant18 f4 [16]
000000 30 5a 7e 3e b8 2b 48 c0 3b 15 88 c0 df 9f f1 be
       0.24839091 -3.1276684 -4.2525916 -0.47192284
000010 d4 a1 20 c0 c4 d2 2a bf 18 ab 64 3e 6f 78 4a c0
       -2.5098772 -0.6672785 0.22330892 -3.1636007
000020 88 62 64 c0 4c 7a ae be bf e3 6d c0 fd 23 16 c0
       -3.5685139 -0.3407768 -3.7170255 -2.3459466
000030 25 81 4d 3d b1 c0 1c bf 75 63 17 c0 f2 97 07 bf
       0.05017199 -0.61231524 -2.3654454 -0.52966225

arith.constant19 f4 [16]
000000 41 e9 f5 41 65 5d d9 41 cd 22 75 41 69 68 79 41
       30.738894 27.170603 15.320996 15.587991
000010 a0 19 c0 41 9b ca 8d 41 f6 23 10 42 76 4e 90 41
       24.012512 17.723928 36.03512 18.038311
000020 17 e1 94 41 43 f3 8f 41 a7 01 b0 41 d9 85 80 41
       18.609907 17.99378 22.000807 16.065355
000030 e7 5f 07 42 16 2d 82 41 ba 34 92 41 e6 82 d1 41
       33.843655 16.272015 18.275745 26.188915

arith.constant20 f4 [32]
000000 0c ea 48 bf 48 dc 9b bd e5 db a0 be fc 08 ef be
       -0.7848213 -0.07610375 -0.31417766 -0.46686542
000010 8a 4f 07 bf 68 e1 7d bf 61 0d 5a bf f6 3a 91 be
       -0.5285574 -0.9917207 -0.85176665 -0.28365296
000020 14 3b 4a bf 03 e1 35 bf 9a b0 48 bf 36 62 90 bf
       -0.78996396 -0.71046466 -0.7839447 -1.1279972
000030 a7 83 a2 be 5e 14 35 be e0 49 26 bf 9e b6 69 bf
       -0.31741068 -0.1768355 -0.64956474 -0.91294277
000040 0b b2 a6 be 9e ce 6d bf 3f 0e 1f be c4 78 31 bf
       -0.3255771 -0.928934 -0.15532778 -0.693249
000050 92 a2 9d be 3f fc d6 be 2b 37 e6 be d5 29 77 be
       -0.30788094 -0.41989323 -0.44963965 -0.24137051
000060 b3 7e 4b bf c4 6c 7b be b3 82 a1 bf 13 8f 75 bf
       -0.794902 -0.2455321 -1.2618011 -0.9592144
000070 0a 0d 41 bf b7 d3 47 bf 59 6c d5 be d6 1e 3f bf
       -0.7541052 -0.78057426 -0.41684225 -0.74656427

arith.constant21 f4 [32]
000000 18 96 38 40 14 63 ed 40 68 5b c3 40 52 3a ba 40
       2.884161 7.4183445 6.104908 5.819619
000010 74 ac 2e 40 aa 59 5f 40 86 13 fa 3f 63 a8 3c 41
       2.7292757 3.4898477 1.9537208 11.79111
000020 2d 14 19 40 bd 07 32 40 43 96 2f 40 b6 08 8b 40
       2.3918564 2.7817223 2.7435462 4.3448133
000030 0c c1 e2 40 2d e8 3d 40 dc e7 e4 3f e7 e5 da 3f
       7.0860653 2.967296 1.7883258 1.7101411
000040 1e 0a d8 40 c8 ff a5 40 62 7d ea 40 61 b1 2f 40
       6.751235 5.1874733 7.3278055 2.7452013
000050 b4 90 e9 40 82 1d ba 40 17 d7 a1 40 20 75 47 40
       7.298914 5.816102 5.057506 3.1165237
000060 72 d9 90 40 b5 f9 ad 40 89 c9 37 40 30 5f 3b 40
       4.5265436 5.436732 2.8716757 2.9276848
000070 d9 6d 8d 40 de 2a c4 3f e0 1f 0a 40 06 9c c8 40
       4.419659 1.5325582 2.1581955 6.269046
