models/emotion_model.tflite (tflite, 54720 bytes, 21 tensors)

arith.constant f2 [7, 64]
0	0xb095	-0.1432
1	0xb33f	-0.2264
2	0xb118	-0.1592
3	0x34a3	0.2898
4	0x33f4	0.2485
5	0xa6be	-0.02634
6	0x3528	0.3223
7	0xb311	-0.2208
8	0xb09e	-0.1443
9	0x309b	0.1439
10	0xa774	-0.02911
11	0xad58	-0.0835
12	0xb010	-0.127
13	0xa89c	-0.036
14	0x31c5	0.1803
15	0x3027	0.1298
16	0x2f0e	0.1102
17	0x2ae2	0.05377
18	0xab20	-0.05566
19	0xb3f5	-0.2487
20	0xb2dc	-0.2144
21	0xafcb	-0.12177
22	0xb07c	-0.1401
23	0x3239	0.1945
24	0xb2d6	-0.2136
25	0x2b91	0.0591
26	0xaf62	-0.11536
27	0xae69	-0.10016
28	0x28d2	0.03766
29	0x31b0	0.1777
30	0xae38	-0.09717
31	0x3026	0.1296
32	0xb134	-0.1626
33	0xae99	-0.1031
34	0x2ac4	0.05286
35	0x9815	-0.001993
36	0xb1ff	-0.1874
37	0x3170	0.1699
38	0x278a	0.02945
39	0xa8bf	-0.03708
40	0xb3ca	-0.2434
41	0xb187	-0.1727
42	0xb1a9	-0.1769
43	0xb176	-0.1707
44	0xaee6	-0.1078
45	0x2646	0.0245
46	0xae44	-0.0979
47	0x2816	0.03192
48	0xad68	-0.0845
49	0x12b7	0.0008197
50	0xa10f	-0.00988
51	0xad7e	-0.0858
52	0xac64	-0.0686
53	0xaaae	-0.0522
54	0x2df1	0.09283
55	0x3043	0.1332
56	0x2a64	0.04993
57	0xb135	-0.1627
58	0x2f7d	0.117
59	0x3428	0.2598
60	0x2c71	0.0694
61	0x2c21	0.0645
62	0x29be	0.04486
63	0x2801	0.03128
64	0xb385	-0.235
65	0x14d9	0.0011835
66	0x2814	0.03186
67	0xa9c4	-0.04504
68	0xaa7f	-0.05075
69	0xb487	-0.283
70	0xa1af	-0.0111
71	0xaec2	-0.1056
72	0xb02c	-0.1304
73	0x9f21	-0.00696
74	0x34ce	0.3003
75	0xae3e	-0.09753
76	0xa99c	-0.04382
77	0x293e	0.04095
78	0xb551	-0.3323
79	0x2307	0.013725
80	0x2c7a	0.06995
81	0xb346	-0.2273
82	0x30f0	0.1543
83	0x24e7	0.01915
84	0x2c6a	0.069
85	0x35af	0.3552
86	0xb560	-0.336
87	0xb511	-0.3167
88	0xb05c	-0.1362
89	0x2c50	0.0674
90	0xb651	-0.3948
91	0x1895	0.002237
92	0xb44c	-0.2686
93	0x24c9	0.01869
94	0xb7cd	-0.4875
95	0xad5c	-0.08374
96	0xb56e	-0.3394
97	0x1a22	0.002995
98	0x334a	0.2278
99	0x2e16	0.0951
100	0xb4b1	-0.2932
101	0x322e	0.1931
102	0x2b2d	0.05606
103	0xb438	-0.2637
104	0xadf6	-0.09314
105	0x336b	0.2318
106	0xb437	-0.2634
107	0xa1fe	-0.0117
108	0xb838	-0.5273
109	0x3583	0.3445
110	0x2ccc	0.07495
111	0xaec6	-0.10583
112	0xb23a	-0.1946
113	0xb438	-0.2637
114	0xb416	-0.2554
115	0xb321	-0.2228
116	0xb7cc	-0.4873
117	0xb00f	-0.1268
118	0xb3af	-0.2401
119	0xa906	-0.03925
120	0xb661	-0.3987
121	0x2c26	0.0648
122	0x2df9	0.0933
123	0xaf4a	-0.1139
124	0x316c	0.1694
125	0x2dcf	0.09076
126	0xb46a	-0.276
127	0xb6f7	-0.4353
128	0xade7	-0.0922
129	0x2d8f	0.08685
130	0xa286	-0.01274
131	0x3217	0.1903
132	0x1b2b	0.0035
133	0x32e4	0.2153
134	0xad9f	-0.0878
135	0x3500	0.3125
136	0xb104	-0.1567
137	0x1690	0.001602
138	0xa818	-0.03198
139	0x2af1	0.05423
140	0xb337	-0.2255
141	0xa30c	-0.01376
142	0xb2ea	-0.2161
143	0x2dd4	0.09106
144	0xb1c1	-0.1798
145	0xaec6	-0.10583
146	0x27e7	0.03087
147	0x30f4	0.1548
148	0x328f	0.205
149	0xb1f3	-0.1859
150	0xac88	-0.0708
151	0xa1ed	-0.01157
152	0xb1ca	-0.1809
153	0xb0a0	-0.1445
154	0x30b9	0.1476
155	0x3328	0.2236
156	0xab07	-0.0549
157	0x1e2d	0.00603
158	0xa9c8	-0.04517
159	0x292f	0.0405
160	0xa727	-0.02794
161	0xaf6e	-0.1161
162	0x33bc	0.2417
163	0x331a	0.2219
164	0x1e2b	0.006023
165	0xb117	-0.159
166	0x9268	-0.000782
167	0x28f2	0.03864
168	0xae67	-0.10004
169	0xad11	-0.07916
170	0xace7	-0.0766
171	0x2875	0.03482
172	0xa3a1	-0.0149
173	0x3463	0.2742
174	0xac37	-0.06586
175	0xad0f	-0.07904
176	0x2ce1	0.07623
177	0xb1e2	-0.1838
178	0xb368	-0.2314
179	0xacaa	-0.0729
180	0x2f58	0.11475
181	0x2ff0	0.124
182	0x8460	-6.676e-05
183	0xac0f	-0.0634
184	0xac27	-0.0649
185	0xa37b	-0.01461
186	0x2cba	0.07385
187	0x3435	0.263
188	0xa459	-0.01698
189	0x2f44	0.1135
190	0xa7e3	-0.0308
191	0x11ee	0.000724
192	0xb0c4	-0.1489
193	0xb22d	-0.193
194	0xb3be	-0.242
195	0x9ee5	-0.006733
196	0xb22c	-0.1929
197	0xa851	-0.03372
198	0xabfe	-0.06244
199	0x2558	0.02087
200	0x3364	0.231
201	0xa9e8	-0.04614
202	0xae87	-0.102
203	0xb324	-0.2231
204	0xb473	-0.278
205	0x325a	0.1985
206	0xaeb0	-0.1045
207	0x3487	0.283
208	0xae7a	-0.1012
209	0xa004	-0.00784
210	0x3339	0.2257
211	0xb05c	-0.1362
212	0x301c	0.1284
213	0x2a42	0.0489
214	0x3026	0.1296
215	0xa997	-0.04367
216	0xa816	-0.03192
217	0x3037	0.1317
218	0x337f	0.2343
219	0x2e21	0.09576
220	0xa7ec	-0.03094
221	0xafb1	-0.1202
222	0x28a3	0.03622
223	0x2d47	0.08246
224	0xb0dd	-0.152
225	0x354c	0.331
226	0xae7e	-0.10144
227	0xb02b	-0.1302
228	0x1da2	0.0055
229	0xb53b	-0.327
230	0xb14f	-0.1659
231	0x1c6e	0.004326
232	0xb16f	-0.1698
233	0xad34	-0.0813
234	0xb471	-0.2776
235	0xb28c	-0.2046
236	0xad16	-0.07947
237	0xb0d4	-0.1509
238	0x2d8a	0.08655
239	0x32bf	0.2108
240	0x9e7e	-0.00634
241	0xb26f	-0.201
242	0xaafe	-0.05463
243	0x33b1	0.2404
244	0xb122	-0.1604
245	0x2c68	0.06885
246	0x2b05	0.05484
247	0x33ca	0.2434
248	0xaca4	-0.0725
249	0xb210	-0.1895
250	0x334a	0.2278
251	0xb01b	-0.1283
252	0x34cc	0.2998
253	0xb4bf	-0.2966
254	0x3513	0.3171
255	0xb4ec	-0.3076

arith.constant1 f2 [64, 128]
0	0x30e4	0.1528
1	0x329d	0.2067
2	0xad9a	-0.0875
3	0xada5	-0.0882
4	0x308f	0.1425
5	0xae5e	-0.0995
6	0xb4a9	-0.2913
7	0x1b6e	0.003628
8	0x30b7	0.1473
9	0xaf21	-0.1114
10	0x2652	0.02469
11	0x2e33	0.09686
12	0x2807	0.03146
13	0x2c66	0.0687
14	0xb1f1	-0.1857
15	0x23ad	0.01499
16	0x99a6	-0.002758
17	0x2b1e	0.0556
18	0xb395	-0.2369
19	0x3003	0.1254
20	0xb0dd	-0.152
21	0x233e	0.014145
22	0x2574	0.0213
23	0xaedf	-0.10736
24	0x2cad	0.07306
25	0x2ec8	0.10596
26	0x2c61	0.0684
27	0xb296	-0.2058
28	0xb234	-0.1938
29	0xacbd	-0.07404
30	0x33a6	0.239
31	0x2c55	0.0677
32	0xb3f5	-0.2487
33	0xaf6d	-0.116
34	0xb702	-0.438
35	0xa55e	-0.02097
36	0xab2e	-0.0561
37	0xb313	-0.2211
38	0xb5d0	-0.3633
39	0x31e7	0.1844
40	0xa1cc	-0.01132
41	0xb1f6	-0.1863
42	0x2bf6	0.0622
43	0xacf3	-0.07733
44	0xb5ed	-0.3704
45	0xb2ec	-0.2163
46	0xad84	-0.0862
47	0xb05b	-0.1361
48	0xb378	-0.2334
49	0xb492	-0.2856
50	0xb436	-0.2632
51	0xa8ef	-0.03854
52	0x1a9c	0.003227
53	0xb33f	-0.2264
54	0xaba6	-0.05975
55	0x2e59	0.0992
56	0xa8ce	-0.03754
57	0xb38f	-0.2362
58	0xaa9b	-0.0516
59	0xb16e	-0.1697
60	0xad4b	-0.0827
61	0xb116	-0.1589
62	0xad60	-0.084
63	0x298a	0.04327
64	0xafe2	-0.12317
65	0x0f4b	0.0004451
66	0xb2cb	-0.2123
67	0x2a84	0.0509
68	0x219e	0.01097
69	0xb15f	-0.1678
70	0x312e	0.1619
71	0x2c34	0.0657
72	0x2e15	0.09503
73	0xab2b	-0.056
74	0xb4c3	-0.2976
75	0xa79d	-0.02974
76	0x314a	0.1653
77	0xb161	-0.1681
78	0xb38d	-0.236
79	0x18e1	0.002382
80	0xad63	-0.08417
81	0x30bd	0.1481
82	0xaa7a	-0.0506
83	0x1d9b	0.005474
84	0x2a1c	0.04773
85	0x296e	0.04242
86	0xa11c	-0.00998
87	0xacf4	-0.0774
88	0xa78d	-0.0295
89	0xab19	-0.05545
90	0x314d	0.1656
91	0xa7f9	-0.03114
92	0x2eda	0.10706
93	0xa8c2	-0.03717
94	0x2f88	0.1177
95	0x31ed	0.1852
96	0xb3be	-0.242
97	0xae30	-0.0967
98	0xaaa1	-0.0518
99	0xb5a5	-0.3528
100	0x3077	0.1395
101	0xb1e9	-0.1847
102	0xb11b	-0.1595
103	0x3482	0.2817
104	0xa8a3	-0.03622
105	0x289e	0.03607
106	0xafea	-0.12366
107	0x2eea	0.10803
108	0xb4d4	-0.3018
109	0x34cd	0.3
110	0x344e	0.269
111	0xaed2	-0.10657
112	0x2f46	0.11365
113	0x3235	0.194
114	0xb50c	-0.3154
115	0xa863	-0.03427
116	0xaa6a	-0.0501
117	0x2736	0.02817
118	0x2424	0.01617
119	0x2ff4	0.12427
120	0xa8b9	-0.0369
121	0xaa35	-0.0485
122	0x2c67	0.0688
123	0x188b	0.002218
124	0xb612	-0.3794
125	0xb34c	-0.228
126	0xa6f2	-0.02713
127	0xb0d2	-0.1506
128	0xad9b	-0.0876
129	0x2e37	0.0971
130	0xb1de	-0.1833
131	0x272f	0.02806
132	0xb2ec	-0.2163
133	0xac15	-0.0638
134	0xadc0	-0.08984
135	0xad14	-0.07935
136	0xb009	-0.1261
137	0xb0d4	-0.1509
138	0x28eb	0.03842
139	0xa8fb	-0.0389
140	0x1f08	0.006866
141	0xb4be	-0.2964
142	0x2ac9	0.053
143	0xb339	-0.2257
144	0xb428	-0.2598
145	0xabf9	-0.0623
146	0x25c2	0.02249
147	0xa8f6	-0.03876
148	0xad95	-0.0872
149	0x342d	0.261
150	0xadcf	-0.09076
151	0xb0e8	-0.1533
152	0xad69	-0.08453
153	0x15a8	0.001381
154	0x1e4d	0.006153
155	0xb28f	-0.205
156	0xb047	-0.1337
157	0x2bab	0.0599
158	0x2a13	0.04745
159	0xb45c	-0.2725
160	0x2922	0.0401
161	0xb0ef	-0.1542
162	0x2d6a	0.0846
163	0xb0bc	-0.148
164	0xaf19	-0.1109
165	0xac91	-0.07135
166	0x2fbf	0.12103
167	0x3081	0.1407
168	0x9f07	-0.006863
169	0xa313	-0.01382
170	0x18d6	0.002361
171	0xa8db	-0.03793
172	0x2e3c	0.0974
173	0xac38	-0.0659
174	0xb23e	-0.1951
175	0x32fc	0.2183
176	0xb1ae	-0.1775
177	0xa933	-0.04062
178	0xb209	-0.1886
179	0x1898	0.002243
180	0xa8ee	-0.0385
181	0xa7e4	-0.03082
182	0xa6c1	-0.02638
183	0xb184	-0.1724
184	0x3187	0.1727
185	0xb321	-0.2228
186	0x34c5	0.298
187	0x2e6f	0.1005
188	0x3169	0.1691
189	0xa4e2	-0.01907
190	0xab10	-0.05518
191	0x2f59	0.1148
192	0x2baa	0.05988
193	0x306d	0.1383
194	0x305d	0.1364
195	0x338a	0.2356
196	0xb460	-0.2734
197	0x2cc8	0.0747
198	0x21b6	0.011154
199	0xabec	-0.0619
200	0x9ba9	-0.00374
201	0xa6a6	-0.02597
202	0x2a94	0.0514
203	0x2a2c	0.04822
204	0x2fa9	0.1197
205	0xac1f	-0.0644
206	0x2fb4	0.12036
207	0xaa03	-0.04697
208	0xb220	-0.1914
209	0x3120	0.1602
210	0x2e60	0.0996
211	0xb553	-0.3328
212	0x2b9d	0.05948
213	0xaeaf	-0.10443
214	0xaca5	-0.0726
215	0x2d0c	0.07886
216	0xa940	-0.04102
217	0xaa29	-0.04813
218	0xa19a	-0.01094
219	0x2239	0.01215
220	0x2c75	0.06964
221	0x2e48	0.09814
222	0xb09f	-0.1444
223	0xa81b	-0.03207
224	0x2bbb	0.0604
225	0xaf58	-0.11475
226	0xac03	-0.0627
227	0x99aa	-0.002766
228	0x2a67	0.05002
229	0x2dbd	0.08966
230	0xb528	-0.3223
231	0xadb8	-0.08936
232	0x22cb	0.01327
233	0x3015	0.1276
234	0x3122	0.1604
235	0xab9b	-0.05942
236	0x2a0c	0.04724
237	0x2997	0.04367
238	0xb04c	-0.1343
239	0xa8ff	-0.03903
240	0xb251	-0.1974
241	0xb277	-0.202
242	0xb1bf	-0.1796
243	0x319c	0.1753
244	0xb0b3	-0.1469
245	0xb080	-0.1406
246	0xa4cc	-0.01874
247	0xb20d	-0.1891
248	0x2418	0.01599
249	0x2d75	0.08527
250	0xa3d9	-0.01533
251	0x9de1	-0.00574
252	0xb1e0	-0.1836
253	0xa5c6	-0.02255
254	0x2edf	0.10736
255	0xb31a	-0.2219

arith.constant2 f2 [64]
0	0x300f	0.1268
1	0xadd7	-0.09125
2	0xb39b	-0.2377
3	0x1dc7	0.005642
4	0x2f37	0.11273
5	0x3231	0.1935
6	0x308f	0.1425
7	0x2fd1	0.12213
8	0x32c6	0.2117
9	0xaee0	-0.1074
10	0xb324	-0.2231
11	0x1cf1	0.004826
12	0x349a	0.2876
13	0xa8ef	-0.03854
14	0x24f6	0.01938
15	0x316d	0.1696
16	0xab86	-0.05878
17	0x3578	0.3418
18	0xa896	-0.03583
19	0xa97e	-0.0429
20	0xa955	-0.04166
21	0xb4fa	-0.311
22	0xb557	-0.3337
23	0x2d5d	0.0838
24	0x319b	0.1752
25	0xb176	-0.1707
26	0xb06d	-0.1383
27	0x2ceb	0.07684
28	0xb152	-0.1663
29	0xad8d	-0.08673
30	0xb538	-0.3262
31	0x34da	0.3032
32	0x37a6	0.478
33	0xa218	-0.0119
34	0xaf1e	-0.1112
35	0xb456	-0.271
36	0x2854	0.0338
37	0x27bb	0.0302
38	0xb39b	-0.2377
39	0x2d72	0.0851
40	0xb464	-0.2744
41	0xa26b	-0.012535
42	0xb47d	-0.2805
43	0xb10f	-0.1581
44	0x3441	0.2659
45	0x353b	0.327
46	0xb327	-0.2235
47	0xac80	-0.0703
48	0xa9be	-0.04486
49	0x34a0	0.289
50	0xaed7	-0.1069
51	0x3226	0.1921
52	0xa5cc	-0.02264
53	0x2e7c	0.1013
54	0x2f8d	0.118
55	0x30aa	0.1458
56	0x32fb	0.2181
57	0x955e	-0.00131
58	0x28b9	0.0369
59	0x2ade	0.05365
60	0x3414	0.255
61	0x99c8	-0.002823
62	0x3124	0.1606
63	0x3002	0.1252

arith.constant3 f2 [3, 3, 64, 1]
0	0x34fb	0.3113
1	0xb144	-0.1646
2	0xadd9	-0.0914
3	0xb108	-0.1572
4	0xafab	-0.1198
5	0xb01d	-0.1285
6	0x2944	0.04114
7	0x30a9	0.1456
8	0x305d	0.1364
9	0xad9e	-0.08777
10	0x298b	0.0433
11	0xb560	-0.336
12	0x33db	0.2455
13	0x2e3d	0.0975
14	0xb080	-0.1406
15	0x306e	0.1384
16	0x2419	0.016
17	0xa8bd	-0.03702
18	0xb2a5	-0.2076
19	0x309e	0.1443
20	0xabf4	-0.06213
21	0xaba9	-0.05984
22	0xb25f	-0.1991
23	0xb169	-0.1691
24	0xa791	-0.02956
25	0xa958	-0.04175
26	0x3159	0.1671
27	0xa3c7	-0.01519
28	0xb07a	-0.1399
29	0xaccb	-0.0749
30	0xa67f	-0.02538
31	0x3337	0.2255
32	0x3521	0.3206
33	0xa7b1	-0.03004
34	0xab67	-0.05783
35	0x2e62	0.09973
36	0xa50e	-0.01974
37	0xa523	-0.02007
38	0x2c30	0.0654
39	0xb128	-0.1611
40	0x9b10	-0.003448
41	0x30fc	0.1558
42	0xab3d	-0.05655
43	0xac44	-0.06665
44	0x2d30	0.08105
45	0x9d65	-0.00527
46	0xb13c	-0.1636
47	0xaf39	-0.11285
48	0xaec4	-0.1057
49	0x3199	0.1749
50	0xa119	-0.00996
51	0x287c	0.03503
52	0xa4bb	-0.01848
53	0xb0c0	-0.1484
54	0x31ee	0.1853
55	0xa828	-0.03247
56	0xa09f	-0.009026
57	0xb036	-0.1316
58	0x31fa	0.1868
59	0x22f1	0.01356
60	0x348a	0.2837
61	0xb1ae	-0.1775
62	0x3044	0.1333
63	0xb0ae	-0.1462
64	0x2aa8	0.052
65	0xad47	-0.08246
66	0xac21	-0.0645
67	0xaebe	-0.10535
68	0xac7e	-0.0702
69	0xb2f2	-0.217
70	0x2bf1	0.06204
71	0x2606	0.02353
72	0x2f9e	0.119
73	0xaf9b	-0.11884
74	0x21f7	0.01165
75	0xa860	-0.03418
76	0x2d86	0.0863
77	0xadef	-0.0927
78	0xaea8	-0.104
79	0xa80e	-0.03168
80	0xac2e	-0.0653
81	0x30be	0.1482
82	0xb11d	-0.1598
83	0x3260	0.1992
84	0x2fbe	0.121
85	0xb127	-0.161
86	0xace2	-0.0763
87	0xaa2c	-0.04822
88	0x2ae5	0.05386
89	0x327f	0.203
90	0x2c78	0.0698
91	0x2cad	0.07306
92	0xadb6	-0.08923
93	0xac33	-0.0656
94	0x1ddc	0.005722
95	0x319e	0.1755
96	0x344f	0.2693
97	0xb241	-0.1954
98	0x299e	0.04388
99	0x28ae	0.03656
100	0x2cf9	0.0777
101	0x27a1	0.0298
102	0xaf4e	-0.11414
103	0x2e97	0.10297
104	0x2eb2	0.1046
105	0x31ed	0.1852
106	0xacb1	-0.0733
107	0xad96	-0.0873
108	0x2abf	0.0527
109	0x3071	0.1388
110	0xb009	-0.1261
111	0xab57	-0.05734
112	0xad20	-0.0801
113	0x3174	0.1704
114	0x2d84	0.0862
115	0xaca2	-0.0724
116	0xb085	-0.1412
117	0xad54	-0.08325
118	0x2275	0.01261
119	0xa9e6	-0.04608
120	0xb080	-0.1406
121	0x2c53	0.06757
122	0x30a9	0.1456
123	0x24de	0.01901
124	0x2ea9	0.10406
125	0xb02f	-0.1307
126	0x3293	0.2054
127	0xa29c	-0.01291
128	0xacee	-0.077
129	0xb3e2	-0.2463
130	0xb48f	-0.285
131	0xadb2	-0.089
132	0xb0ac	-0.146
133	0xa5df	-0.02293
134	0x34d2	0.3013
135	0x028d	3.89e-05
136	0x30e1	0.1525
137	0xa9dc	-0.04578
138	0xac07	-0.0629
139	0x2f18	0.11084
140	0xa083	-0.00881
141	0xad56	-0.0834
142	0xa2bf	-0.013176
143	0xb24a	-0.1965
144	0xb33d	-0.2262
145	0x33fa	0.2493
146	0x2b4c	0.057
147	0x2cb9	0.0738
148	0x2b24	0.0558
149	0xb187	-0.1727
150	0xa27a	-0.01265
151	0x2ca2	0.0724
152	0x2784	0.02936
153	0x2eb2	0.1046
154	0x26ab	0.02605
155	0x3135	0.1627
156	0xa749	-0.02846
157	0xa8f3	-0.03867
158	0xac61	-0.0684
159	0x2cc5	0.0745
160	0x34e9	0.307
161	0xac18	-0.06396
162	0xb2a7	-0.2079
163	0xad44	-0.0823
164	0x270a	0.0275
165	0x33d0	0.2441
166	0xb1e5	-0.1842
167	0x32fd	0.2184
168	0xaf6f	-0.11615
169	0xad7c	-0.0857
170	0xaca2	-0.0724
171	0xab97	-0.0593
172	0x2ead	0.1043
173	0x304a	0.134
174	0xb1df	-0.1835
175	0xb1fc	-0.187
176	0xad6c	-0.0847
177	0x94a2	-0.001131
178	0xab40	-0.05664
179	0xb259	-0.1984
180	0x28b9	0.0369
181	0xb347	-0.2274
182	0x2f6f	0.11615
183	0xae9f	-0.10345
184	0x2d10	0.0791
185	0x276e	0.02902
186	0x2f2a	0.11194
187	0xb405	-0.2512
188	0x32fe	0.2185
189	0xa8e3	-0.03818
190	0x2a70	0.0503
191	0x2a74	0.0504
192	0x29dc	0.04578
193	0x31ff	0.1874
194	0x2c76	0.0697
195	0x30f0	0.1543
196	0x26b7	0.02623
197	0x9375	-0.0009103
198	0x2b62	0.05768
199	0x2f00	0.1094
200	0x315f	0.1678
201	0x2f83	0.1174
202	0x290d	0.03946
203	0xb2d8	-0.2139
204	0x344c	0.2686
205	0x28c0	0.0371
206	0xb05a	-0.136
207	0x24e2	0.01907
208	0xac00	-0.0625
209	0xac36	-0.0658
210	0xb188	-0.1729
211	0x9e6f	-0.006283
212	0xb204	-0.188
213	0xab61	-0.05765
214	0xa688	-0.02551
215	0xaec1	-0.1055
216	0x3242	0.1956
217	0xb08f	-0.1425
218	0xa9c6	-0.0451
219	0x2681	0.0254
220	0x2453	0.01689
221	0x3113	0.1586
222	0xaa2d	-0.04825
223	0x2bd6	0.06122
224	0x309d	0.1442
225	0x2d7d	0.08575
226	0x2ed0	0.10645
227	0xafda	-0.1227
228	0xb427	-0.2595
229	0xa822	-0.0323
230	0x2f3e	0.11316
231	0xa65b	-0.02483
232	0x2a23	0.04794
233	0xaff2	-0.12415
234	0xb09c	-0.144
235	0x2d18	0.0796
236	0x300e	0.1267
237	0xa4a5	-0.01814
238	0xaf8a	-0.1178
239	0xa6c7	-0.02647
240	0xaf18	-0.11084
241	0x2efa	0.109
242	0x1c81	0.0044
243	0x30ac	0.146
244	0xa799	-0.02968
245	0xa23a	-0.01216
246	0x30c2	0.1487
247	0x3127	0.161
248	0xaf32	-0.1124
249	0xa37a	-0.0146
250	0x274b	0.02849
251	0x325c	0.1987
252	0x1b98	0.003708
253	0xb07e	-0.1404
254	0x2c4c	0.06714
255	0xb043	-0.1332

arith.constant5 f2 [5, 5, 1, 1]
0	0xb653	-0.3953
1	0xb84c	-0.537
2	0xb410	-0.254
3	0xaf7d	-0.117
4	0x3301	0.2189
5	0x31eb	0.1849
6	0x34c2	0.2974
7	0xb58d	-0.347
8	0xb280	-0.2031
9	0x2549	0.02065
10	0x33ce	0.2439
11	0x367c	0.4053
12	0x2c1f	0.0644
13	0xac92	-0.0714
14	0x337f	0.2343
15	0xb294	-0.2056
16	0x363f	0.3904
17	0x3296	0.2058
18	0xaec0	-0.10547
19	0xb56b	-0.3386
20	0x31c1	0.1798
21	0x3326	0.2234
22	0xaf49	-0.11383
23	0xabd0	-0.06104
24	0x2f90	0.11816

arith.constant6 f2 [32]
0	0xac08	-0.063
1	0xad99	-0.08746
2	0xad4e	-0.0829
3	0x29bb	0.04477
4	0xa00f	-0.00793
5	0x2835	0.03287
6	0x2a55	0.04947
7	0xa8af	-0.0366
8	0x1a0c	0.002953
9	0xac8a	-0.0709
10	0x1c66	0.004295
11	0x98c0	-0.00232
12	0x2ac4	0.05286
13	0x9e56	-0.006187
14	0x1be3	0.00385
15	0x22f8	0.01361
16	0x2c26	0.0648
17	0x2fc9	0.12164
18	0x21cd	0.01133
19	0xa308	-0.01373
20	0x2d37	0.0815
21	0x2c7c	0.07007
22	0xa543	-0.02055
23	0xa1dc	-0.011444
24	0xadd9	-0.0914
25	0xa831	-0.03275
26	0x1eb8	0.00656
27	0x2df3	0.09296
28	0xa3d1	-0.01527
29	0xa971	-0.0425
30	0xadf7	-0.0932
31	0xac88	-0.0708

arith.constant7 f2 [3, 3, 32, 1]
0	0x30f5	0.1549
1	0x3210	0.1895
2	0x302b	0.1302
3	0x3228	0.1924
4	0xa8f6	-0.03876
5	0xb33d	-0.2262
6	0xb585	-0.345
7	0x2cc0	0.0742
8	0xa966	-0.04218
9	0x3506	0.314
10	0xb287	-0.204
11	0x2277	0.01263
12	0x2737	0.02818
13	0x2d5d	0.0838
14	0x2e52	0.09875
15	0x2dc1	0.0899
16	0x2828	0.03247
17	0xafae	-0.12
18	0xb1ce	-0.1814
19	0x30c7	0.1493
20	0x31e9	0.1847
21	0x3227	0.1923
22	0x2bf5	0.06216
23	0x3287	0.204
24	0xb332	-0.2249
25	0x2dc6	0.0902
26	0x34ef	0.3083
27	0x2bcd	0.06094
28	0x2f75	0.1165
29	0x3392	0.2366
30	0x9f14	-0.006912
31	0x2d26	0.08044
32	0xa52f	-0.02025
33	0x3133	0.1625
34	0xb003	-0.1254
35	0xac37	-0.06586
36	0x9edb	-0.006695
37	0xb0fd	-0.1559
38	0xb24b	-0.1967
39	0x258c	0.02167
40	0xb131	-0.1622
41	0x2f65	0.11554
42	0xb276	-0.2019
43	0xb001	-0.1251
44	0xac91	-0.07135
45	0x2e72	0.1007
46	0x2840	0.0332
47	0x2896	0.03583
48	0x2df4	0.093
49	0x2073	0.00869
50	0xb298	-0.206
51	0x2106	0.00981
52	0x225b	0.01241
53	0xb254	-0.1978
54	0xb42d	-0.261
55	0xb124	-0.1606
56	0xb2b5	-0.2096
57	0x341c	0.2568
58	0x3278	0.2021
59	0x3219	0.1906
60	0x2aab	0.0521
61	0x160a	0.001474
62	0x259b	0.0219
63	0x2a72	0.05035
64	0x2edb	0.1071
65	0x2e96	0.1029
66	0xa939	-0.0408
67	0x2bf9	0.0623
68	0xb1c5	-0.1803
69	0xb035	-0.1315
70	0xad7f	-0.0859
71	0x2d6c	0.0847
72	0xb183	-0.1722
73	0x3319	0.2218
74	0xac04	-0.06274
75	0xa9a6	-0.04413
76	0xb02a	-0.1301
77	0x2953	0.0416
78	0x279d	0.02974
79	0xb343	-0.2269
80	0x1f16	0.00692
81	0x2ebd	0.1053
82	0xb2c3	-0.2113
83	0x216c	0.01059
84	0x2c7a	0.06995
85	0xae14	-0.095
86	0xb443	-0.2664
87	0xa5f0	-0.0232
88	0x23ae	0.015
89	0x2e99	0.1031
90	0xabba	-0.06036
91	0x9d3f	-0.005123
92	0xa4b5	-0.01839
93	0x2db7	0.0893
94	0x346e	0.2769
95	0xa4a6	-0.01816
96	0x2fd8	0.12256
97	0x2b90	0.05908
98	0xaf51	-0.1143
99	0x331c	0.2222
100	0xac31	-0.0655
101	0xb4f1	-0.3088
102	0xb102	-0.1565
103	0x2fa5	0.11945
104	0x31a2	0.176
105	0x349e	0.2886
106	0x2971	0.0425
107	0x2ea4	0.10376
108	0x31a3	0.1761
109	0x326e	0.2009
110	0xaeb1	-0.10455
111	0xb195	-0.1744
112	0x3436	0.2632
113	0x2e14	0.095
114	0x2762	0.02884
115	0x3297	0.2059
116	0xa7b6	-0.03012
117	0x208f	0.0089
118	0x3069	0.1378
119	0x3172	0.1702
120	0xb099	-0.1437
121	0xb3db	-0.2455
122	0x3181	0.172
123	0x2288	0.01276
124	0x2867	0.0344
125	0x3318	0.2217
126	0x268b	0.02556
127	0xac65	-0.06866
128	0xa8b8	-0.03687
129	0x2af2	0.05426
130	0x9e94	-0.006424
131	0x2fc8	0.1216
132	0x304d	0.1344
133	0xb15c	-0.1675
134	0x2341	0.01417
135	0xb001	-0.1251
136	0x30b6	0.1472
137	0x1c20	0.00403
138	0xae09	-0.0943
139	0xb370	-0.2324
140	0xb42e	-0.2612
141	0xacae	-0.0731
142	0xac92	-0.0714
143	0x2ef8	0.1089
144	0x2a10	0.04736
145	0x3116	0.1589
146	0x3100	0.1562
147	0x344e	0.269
148	0xb121	-0.1603
149	0xb818	-0.5117
150	0x2f8c	0.1179
151	0xb4ff	-0.3123
152	0xad0b	-0.0788
153	0x2ee2	0.10754
154	0x2416	0.01596
155	0x9ac1	-0.003298
156	0xb4f4	-0.3096
157	0x2fb1	0.1202
158	0xa65a	-0.02481
159	0xb3d1	-0.2443
160	0x3056	0.1355
161	0x1962	0.002628
162	0xb364	-0.231
163	0x2f24	0.1116
164	0xb3a6	-0.239
165	0xadb7	-0.0893
166	0x3306	0.2195
167	0x2f63	0.1154
168	0x30cf	0.1503
169	0xa8da	-0.0379
170	0x27b6	0.03012
171	0x3509	0.3147
172	0x2c3c	0.06616
173	0xa38d	-0.01475
174	0x2e7d	0.1014
175	0xa525	-0.0201
176	0x2d58	0.0835
177	0x3061	0.1368
178	0xae36	-0.09705
179	0xb433	-0.2625
180	0x314c	0.1655
181	0xac64	-0.0686
182	0xaca9	-0.0728
183	0xaf3a	-0.1129
184	0xa924	-0.04016
185	0xafdb	-0.12274
186	0xae57	-0.09906
187	0x2c01	0.06256
188	0x2c62	0.0685
189	0xa44a	-0.01675
190	0x3321	0.2228
191	0xad37	-0.0815
192	0x3116	0.1589
193	0xa000	-0.007812
194	0xaace	-0.05316
195	0xb247	-0.1962
196	0xb51e	-0.3198
197	0x3031	0.131
198	0x3014	0.1274
199	0xb087	-0.1415
200	0xaf0e	-0.1102
201	0x3110	0.1582
202	0xae3b	-0.09735
203	0xa843	-0.0333
204	0x2e6b	0.1003
205	0x33f2	0.2483
206	0xa89b	-0.03598
207	0xad19	-0.07965
208	0x35a5	0.3528
209	0x2de2	0.0919
210	0xb0d0	-0.1504
211	0x9b07	-0.003431
212	0xa713	-0.02763
213	0xae0c	-0.0945
214	0xb125	-0.1608
215	0xb141	-0.1642
216	0xb084	-0.1411
217	0xb0d3	-0.1508
218	0xb21f	-0.1913
219	0xb055	-0.1354
220	0x3350	0.2285
221	0x2d75	0.08527
222	0x32f7	0.2177
223	0xa184	-0.01077
224	0xa38f	-0.01476
225	0x34c9	0.299
226	0x3485	0.2825
227	0xb05d	-0.1364
228	0x2f7b	0.1169
229	0xaefc	-0.10913
230	0x30df	0.1522
231	0xb89f	-0.5776
232	0xb262	-0.1995
233	0x2851	0.03372
234	0xae57	-0.09906
235	0x2936	0.0407
236	0xad71	-0.085
237	0xb34c	-0.228
238	0x1100	0.0006104
239	0x2ff2	0.12415
240	0x2489	0.01772
241	0x33e7	0.247
242	0x2c0c	0.06323
243	0x9a48	-0.003067
244	0xb37d	-0.234
245	0x9b88	-0.003677
246	0x339c	0.2378
247	0xa788	-0.02942
248	0x2b0c	0.05505
249	0x313b	0.1635
250	0xb4cc	-0.2998
251	0xb43e	-0.2651
252	0x2714	0.02765
253	0x2e14	0.095
254	0xa6df	-0.02684
255	0xb4ea	-0.3071

arith.constant8 f2 [64]
0	0x9f7c	-0.00731
1	0xb561	-0.3362
2	0xae13	-0.0949
3	0xa74d	-0.02852
4	0x2fc1	0.12115
5	0x295e	0.04193
6	0xb4e1	-0.305
7	0xb594	-0.3486
8	0x2156	0.01042
9	0xaf82	-0.1173
10	0xb3bd	-0.2418
11	0xb40d	-0.2532
12	0xab83	-0.0587
13	0xb0b9	-0.1476
14	0xb726	-0.4468
15	0x3278	0.2021
16	0xb46f	-0.277
17	0x3174	0.1704
18	0x328e	0.2048
19	0xaea8	-0.104
20	0xaf7b	-0.1169
21	0x2c15	0.0638
22	0xb09a	-0.1438
23	0x2eb9	0.10504
24	0xb38d	-0.236
25	0xa30b	-0.013756
26	0x32c2	0.2112
27	0x20e9	0.00959
28	0x2a60	0.0498
29	0xb345	-0.2272
30	0x2f1d	0.11115
31	0xb6dd	-0.429
32	0xb32a	-0.2239
33	0x30e1	0.1525
34	0x1ad7	0.00334
35	0xaefc	-0.10913
36	0xa568	-0.02112
37	0x2b51	0.05716
38	0xb426	-0.2593
39	0xaee5	-0.1077
40	0xb087	-0.1415
41	0xb462	-0.274
42	0x255f	0.02098
43	0xb1d0	-0.1816
44	0x3266	0.2
45	0x2b2f	0.05612
46	0xb113	-0.1586
47	0xa971	-0.0425
48	0x2c86	0.0707
49	0xb29e	-0.2068
50	0xabb7	-0.06027
51	0xafff	-0.12494
52	0x2433	0.0164
53	0xac8b	-0.071
54	0x26ee	0.02707
55	0x2f3d	0.1131
56	0x2c04	0.06274
57	0xb220	-0.1914
58	0x351a	0.3188
59	0x34d9	0.303
60	0x31d6	0.1824
61	0x1d86	0.005394
62	0x30cc	0.1499
63	0xa62b	-0.0241

arith.constant9 f2 [7]
0	0x2bfb	0.06235
1	0xb68e	-0.4097
2	0x2b4c	0.057
3	0x2ce7	0.0766
4	0x29d1	0.04544
5	0x2048	0.00836
6	0xaf67	-0.11566

arith.constant10 f2 [128]
0	0xb394	-0.2368
1	0xac15	-0.0638
2	0x3043	0.1332
3	0xb141	-0.1642
4	0x2d27	0.0805
5	0xaf82	-0.1173
6	0xb499	-0.2874
7	0xb131	-0.1622
8	0xb444	-0.2666
9	0xaafb	-0.05453
10	0x33f8	0.249
11	0xb1be	-0.1794
12	0xb205	-0.1881
13	0xad18	-0.0796
14	0xaec0	-0.10547
15	0xb050	-0.1348
16	0x29c8	0.04517
17	0xafcf	-0.122
18	0x1a19	0.002977
19	0xb1a8	-0.1768
20	0xb41b	-0.2566
21	0xb527	-0.322
22	0xa5b8	-0.02234
23	0xac02	-0.0626
24	0xb0c6	-0.1492
25	0xb1cd	-0.1813
26	0xb128	-0.1611
27	0xb403	-0.2507
28	0xb6aa	-0.4165
29	0xaa50	-0.04932
30	0xa2b3	-0.013084
31	0x28fe	0.039
32	0x29ad	0.04434
33	0x215b	0.01046
34	0xa45e	-0.01706
35	0xae5d	-0.0994
36	0x28a2	0.0362
37	0xb011	-0.1271
38	0xb07f	-0.1405
39	0xb14d	-0.1656
40	0xac56	-0.06775
41	0xb2e9	-0.216
42	0xad52	-0.0831
43	0xb49d	-0.2883
44	0xb404	-0.251
45	0xa8bf	-0.03708
46	0xae5f	-0.09955
47	0x2a44	0.04895
48	0xa85c	-0.03406
49	0xa983	-0.04306
50	0xafc6	-0.12146
51	0xafb1	-0.1202
52	0xb4e5	-0.306
53	0xb09a	-0.1438
54	0xb14d	-0.1656
55	0xacfb	-0.0778
56	0xa924	-0.04016
57	0xac76	-0.0697
58	0xac2e	-0.0653
59	0xb0d6	-0.1511
60	0xac4f	-0.0673
61	0xb171	-0.17
62	0xa700	-0.02734
63	0x2021	0.008064
64	0xb083	-0.141
65	0xb03c	-0.1323
66	0xb4f8	-0.3105
67	0xa724	-0.0279
68	0xa7e9	-0.0309
69	0xae48	-0.09814
70	0x2c88	0.0708
71	0xb456	-0.271
72	0xb5e5	-0.3684
73	0xb267	-0.2001
74	0xb538	-0.3262
75	0xb287	-0.204
76	0xaf87	-0.1176
77	0xae0c	-0.0945
78	0xadf9	-0.0933
79	0x2e79	0.10114
80	0xae41	-0.0977
81	0x9ba9	-0.00374
82	0xb0fc	-0.1558
83	0xae61	-0.0997
84	0xa804	-0.03137
85	0xafa5	-0.11945
86	0xad8f	-0.08685
87	0xae9b	-0.1032
88	0xaa1d	-0.04776
89	0xb12c	-0.1616
90	0xb431	-0.262
91	0xae7e	-0.10144
92	0xaf85	-0.1175
93	0xb5d4	-0.3643
94	0xaf75	-0.1165
95	0xae51	-0.0987
96	0xb3b9	-0.2413
97	0xa60c	-0.02362
98	0xb2e2	-0.2151
99	0xb71b	-0.444
100	0xb01d	-0.1285
101	0xac6d	-0.06915
102	0xaf6e	-0.1161
103	0xb0ab	-0.1459
104	0xb3f2	-0.2483
105	0xaf11	-0.1104
106	0xb002	-0.1252
107	0x31ae	0.1775
108	0xb3ed	-0.2477
109	0xae90	-0.10254
110	0xb00d	-0.1266
111	0xaef4	-0.10864
112	0xace0	-0.0762
113	0xad2e	-0.08093
114	0xb1cd	-0.1813
115	0xb4ba	-0.2954
116	0xb1cd	-0.1813
117	0xb38b	-0.2357
118	0xb146	-0.1648
119	0xae18	-0.0952
120	0xb07c	-0.1401
121	0xa82c	-0.0326
122	0xb12d	-0.1617
123	0xb42b	-0.2605
124	0xa8f8	-0.03882
125	0xb0fb	-0.1556
126	0xaa65	-0.04996
127	0xb51e	-0.3198

arith.constant11 f2 [1, 1, 64, 128]
0	0xaf10	-0.11035
1	0xa41c	-0.01605
2	0x2b39	0.05643
3	0xb1c0	-0.1797
4	0xa31b	-0.01388
5	0xae2e	-0.09656
6	0x2a75	0.05045
7	0x3060	0.1367
8	0x2b50	0.05713
9	0x2eff	0.1093
10	0x2b0a	0.055
11	0x0a27	0.0001878
12	0x2d62	0.0841
13	0xb32d	-0.2242
14	0xb544	-0.329
15	0x2740	0.02832
16	0xb165	-0.1686
17	0x33e5	0.2467
18	0x31b2	0.178
19	0xb257	-0.1981
20	0xb2f1	-0.2169
21	0x2fa0	0.11914
22	0xad86	-0.0863
23	0xb339	-0.2257
24	0x337c	0.2339
25	0xb591	-0.348
26	0x34f4	0.3096
27	0x2fb0	0.1201
28	0xb101	-0.1564
29	0xb034	-0.1313
30	0x2fe6	0.1234
31	0x2f48	0.1138
32	0x1beb	0.003866
33	0x2bd4	0.06116
34	0x23b4	0.015045
35	0xa6ac	-0.02606
36	0x2c31	0.0655
37	0x33e1	0.2462
38	0x2e38	0.09717
39	0xb11a	-0.1594
40	0xafe2	-0.12317
41	0xb2bf	-0.2108
42	0x329b	0.2064
43	0x20ee	0.00963
44	0xb449	-0.2678
45	0xad26	-0.08044
46	0xa958	-0.04175
47	0xb145	-0.1647
48	0xb0af	-0.1464
49	0xb385	-0.235
50	0xb45b	-0.2722
51	0xb2be	-0.2107
52	0xac77	-0.06976
53	0xacda	-0.0758
54	0x3011	0.1271
55	0xb69a	-0.4126
56	0x2554	0.02081
57	0xb056	-0.1355
58	0xb1a5	-0.1764
59	0xadf7	-0.0932
60	0x2c67	0.0688
61	0x20ab	0.00912
62	0x2f05	0.1097
63	0xaf53	-0.11444
64	0xaf76	-0.1166
65	0x2e04	0.094
66	0xb217	-0.1903
67	0xb1e7	-0.1844
68	0x2550	0.02075
69	0x3256	0.198
70	0xb4ca	-0.2993
71	0x3423	0.2585
72	0x2c48	0.0669
73	0x3063	0.1371
74	0xb3bb	-0.2416
75	0x2b66	0.0578
76	0xb65b	-0.3972
77	0x3436	0.2632
78	0x2907	0.03928
79	0x3053	0.1351
80	0x306a	0.138
81	0x30c6	0.1492
82	0x243b	0.01653
83	0xb00e	-0.1267
84	0xab5f	-0.0576
85	0xb235	-0.194
86	0xa9ca	-0.04523
87	0xad11	-0.07916
88	0xafa2	-0.11926
89	0x3511	0.3167
90	0xb4fe	-0.312
91	0xad30	-0.08105
92	0xa6b4	-0.02618
93	0xb143	-0.1644
94	0x301e	0.1287
95	0xad9b	-0.0876
96	0xa61c	-0.02386
97	0xb023	-0.1293
98	0x2651	0.02467
99	0xad8d	-0.08673
100	0x9c40	-0.00415
101	0xb4fc	-0.3115
102	0xae3b	-0.09735
103	0x28a5	0.0363
104	0x2911	0.03958
105	0xae47	-0.0981
106	0x229a	0.01289
107	0xae09	-0.0943
108	0xb142	-0.1643
109	0xaf64	-0.1155
110	0xad38	-0.08154
111	0xb401	-0.2502
112	0x31b3	0.1781
113	0x31f8	0.1865
114	0xa526	-0.02011
115	0xac1f	-0.0644
116	0xaa59	-0.0496
117	0x2d0e	0.079
118	0xae88	-0.10205
119	0x30a7	0.1454
120	0x2c69	0.0689
121	0xb468	-0.2754
122	0xafca	-0.1217
123	0xb01d	-0.1285
124	0xb40f	-0.2537
125	0xa9c3	-0.045
126	0x30d5	0.151
127	0xb3fa	-0.2493
128	0x3561	0.3362
129	0xa1cd	-0.01133
130	0x2c81	0.0704
131	0x3182	0.1721
132	0xae0e	-0.0946
133	0x2e2a	0.0963
134	0x332c	0.2241
135	0xa473	-0.01738
136	0xb522	-0.3208
137	0x30da	0.1516
138	0xb46b	-0.2761
139	0x2d3e	0.0819
140	0x2c4b	0.0671
141	0x2fe1	0.1231
142	0x315b	0.1674
143	0xb2e8	-0.2158
144	0xb0f8	-0.1553
145	0xb4f2	-0.309
146	0x2e3f	0.0976
147	0x257a	0.0214
148	0xb21f	-0.1913
149	0xb220	-0.1914
150	0x2732	0.0281
151	0xab86	-0.05878
152	0x34b9	0.2952
153	0xb04f	-0.1346
154	0x3263	0.1996
155	0x317e	0.1716
156	0x3596	0.349
157	0x297b	0.04282
158	0x28c4	0.03723
159	0x2c9d	0.0721
160	0x2906	0.03925
161	0x31e1	0.1837
162	0x3090	0.1426
163	0x2674	0.0252
164	0xb4dd	-0.304
165	0x337d	0.234
166	0x3191	0.174
167	0xad27	-0.0805
168	0xa9b9	-0.0447
169	0x2c08	0.063
170	0x2073	0.00869
171	0x2ae1	0.05374
172	0xa6f1	-0.02711
173	0x30ea	0.1536
174	0x320a	0.1887
175	0xaaa6	-0.05194
176	0xafad	-0.11993
177	0x2c78	0.0698
178	0x2fd2	0.1222
179	0x2cd8	0.0757
180	0x332c	0.2241
181	0xb1e9	-0.1847
182	0x3273	0.2015
183	0x2b59	0.0574
184	0x3554	0.333
185	0x3690	0.4102
186	0x2f70	0.1162
187	0xb23c	-0.1948
188	0x3124	0.1606
189	0x2e7e	0.10144
190	0xa879	-0.03494
191	0x347a	0.2798
192	0xad49	-0.0826
193	0xb343	-0.2269
194	0xa2e0	-0.01343
195	0xafe7	-0.1235
196	0xad57	-0.08344
197	0x3822	0.5166
198	0x2ca4	0.0725
199	0x2284	0.012726
200	0x2b7c	0.05847
201	0x2e3c	0.0974
202	0x3104	0.1567
203	0xb219	-0.1906
204	0xaa2c	-0.04822
205	0xad92	-0.08704
206	0x1eca	0.00663
207	0xb68e	-0.4097
208	0xae7a	-0.1012
209	0x2e29	0.09625
210	0xaf02	-0.1095
211	0xaaa7	-0.05197
212	0x9e22	-0.00599
213	0x3497	0.2869
214	0xa7b0	-0.03003
215	0xb278	-0.2021
216	0x331d	0.2223
217	0x2a92	0.05133
218	0xa967	-0.0422
219	0xa812	-0.0318
220	0x310f	0.1581
221	0x2ae0	0.0537
222	0xaa68	-0.05005
223	0xabb3	-0.06015
224	0x2ab3	0.05234
225	0x2d9d	0.0877
226	0xada6	-0.08826
227	0x2950	0.0415
228	0xa715	-0.02766
229	0x2fc8	0.1216
230	0x2ed2	0.10657
231	0xa240	-0.01221
232	0xb113	-0.1586
233	0xace0	-0.0762
234	0xa548	-0.02063
235	0xabb5	-0.0602
236	0x343d	0.265
237	0xadc1	-0.0899
238	0xab3d	-0.05655
239	0x3246	0.196
240	0x336f	0.2323
241	0xb238	-0.1943
242	0xb2b9	-0.2101
243	0xa97a	-0.0428
244	0x2c0e	0.06335
245	0x329f	0.2069
246	0x367f	0.406
247	0xa9bc	-0.0448
248	0x1792	0.001848
249	0x2fc7	0.1215
250	0x390e	0.632
251	0xae47	-0.0981
252	0x379d	0.4758
253	0x2a1c	0.04773
254	0x2e01	0.0938
255	0x3221	0.1915

arith.constant12 f2 [32]
0	0xa7e2	-0.03079
1	0x2e87	0.102
2	0xa7e5	-0.03084
3	0x16f3	0.001697
4	0x331e	0.2224
5	0xad3a	-0.08167
6	0xa992	-0.04352
7	0x2ab0	0.05225
8	0x23c7	0.01519
9	0x2acb	0.05307
10	0xab2e	-0.0561
11	0x2730	0.02808
12	0x2e43	0.09784
13	0x2dfe	0.0936
14	0xad16	-0.07947
15	0x2c26	0.0648
16	0xb02a	-0.1301
17	0xa9a9	-0.04422
18	0x2d2c	0.0808
19	0x2f44	0.1135
20	0x2c87	0.07074
21	0x2dbf	0.0898
22	0x2b81	0.05862
23	0xa17e	-0.01073
24	0x2004	0.00784
25	0x9f0d	-0.006886
26	0xa9b0	-0.04443
27	0xa875	-0.03482
28	0xa787	-0.0294
29	0x32a9	0.2081
30	0x2f62	0.11536
31	0x2ce2	0.0763

arith.constant13 f2 [1, 1, 1, 32]
0	0xb5d3	-0.364
1	0x345d	0.2727
2	0x3857	0.5425
3	0x37ec	0.495
4	0xb334	-0.2251
5	0xb441	-0.2659
6	0x1830	0.002045
7	0xb5ca	-0.3618
8	0x3515	0.3176
9	0xb744	-0.454
10	0xb635	-0.388
11	0x378c	0.4717
12	0x34dd	0.304
13	0x363b	0.3894
14	0xa9de	-0.04584
15	0x34f4	0.3096
16	0x36ab	0.4167
17	0xb64e	-0.394
18	0x3364	0.231
19	0x325a	0.1985
20	0x306b	0.1381
21	0xb48a	-0.2837
22	0xb4f4	-0.3096
23	0x381b	0.513
24	0xb837	-0.527
25	0x360f	0.3787
26	0xa197	-0.01092
27	0x380b	0.5054
28	0x3831	0.524
29	0x337e	0.2341
30	0x34f8	0.3105
31	0x352e	0.3237

arith.constant14 f2 [64]
0	0x2ac2	0.0528
1	0x2c1d	0.0643
2	0x31f3	0.1859
3	0x2ca4	0.0725
4	0xacb6	-0.0736
5	0xab48	-0.0569
6	0xacc9	-0.07477
7	0xa813	-0.03183
8	0xb327	-0.2235
9	0xad5f	-0.0839
10	0xb195	-0.1744
11	0xaf70	-0.1162
12	0xb0d9	-0.1515
13	0xb3ba	-0.2415
14	0x2f22	0.11145
15	0xaed9	-0.107
16	0xb0b2	-0.1467
17	0x3322	0.2229
18	0xaa21	-0.04788
19	0xa6b6	-0.02621
20	0x2dc8	0.09033
21	0x1659	0.00155
22	0xb161	-0.1681
23	0x2d6b	0.08466
24	0xa653	-0.0247
25	0xb08a	-0.1418
26	0xaee8	-0.1079
27	0x2e51	0.0987
28	0xb4c6	-0.2983
29	0xacb6	-0.0736
30	0x2ded	0.0926
31	0xa391	-0.01478
32	0x2be9	0.0618
33	0xa4d7	-0.0189
34	0xb1d8	-0.1826
35	0xb0f4	-0.1548
36	0xab80	-0.0586
37	0xaffb	-0.1247
38	0x9dc3	-0.005627
39	0x2e28	0.0962
40	0xaf60	-0.11523
41	0xb063	-0.1371
42	0xb296	-0.2058
43	0xad77	-0.0854
44	0xa9a4	-0.04407
45	0x2ba0	0.05957
46	0xad66	-0.08435
47	0xac40	-0.0664
48	0xb76b	-0.4636
49	0xb210	-0.1895
50	0xa789	-0.02943
51	0x2a6d	0.0502
52	0x2252	0.012344
53	0xa322	-0.01393
54	0xb1ae	-0.1775
55	0xaddc	-0.09155
56	0x2fc9	0.12164
57	0x2e72	0.1007
58	0xae9b	-0.1032
59	0xae60	-0.0996
60	0xb3ff	-0.2499
61	0x2aae	0.0522
62	0xb244	-0.1958
63	0x2b52	0.0572

arith.constant15 f2 [1, 1, 32, 64]
0	0xb39a	-0.2375
1	0xb389	-0.2355
2	0x2c25	0.06476
3	0xb2fa	-0.218
4	0xb4f4	-0.3096
5	0xb10a	-0.1575
6	0x2fbf	0.12103
7	0xad19	-0.07965
8	0x33df	0.246
9	0x2d63	0.08417
10	0x2f63	0.1154
11	0xa68d	-0.02559
12	0xb349	-0.2277
13	0xb47c	-0.2803
14	0xadef	-0.0927
15	0xb311	-0.2208
16	0xaa49	-0.0491
17	0x3295	0.2057
18	0xb2e3	-0.2152
19	0xb14d	-0.1656
20	0x2a04	0.047
21	0xa35a	-0.01436
22	0x37c7	0.486
23	0xadec	-0.0925
24	0xb83b	-0.529
25	0x3506	0.314
26	0xab25	-0.05582
27	0xadf4	-0.093
28	0x30c3	0.1488
29	0xb191	-0.174
30	0x2d7e	0.0858
31	0x247f	0.01756
32	0xa9b0	-0.04443
33	0xa7eb	-0.03093
34	0x29f7	0.0466
35	0x2dc1	0.0899
36	0xafb7	-0.12054
37	0xb3cc	-0.2437
38	0x1961	0.002626
39	0xb110	-0.1582
40	0x2a11	0.0474
41	0xa10c	-0.00986
42	0x3112	0.1584
43	0x3513	0.3171
44	0x2f81	0.11725
45	0x2dce	0.0907
46	0x2698	0.02576
47	0xadb5	-0.0892
48	0x355e	0.3354
49	0x92fd	-0.000853
50	0xb432	-0.2622
51	0x33db	0.2455
52	0xb482	-0.2817
53	0xb48b	-0.284
54	0x2c26	0.0648
55	0x303e	0.1326
56	0xb158	-0.167
57	0xae30	-0.0967
58	0xb40f	-0.2537
59	0xb142	-0.1643
60	0x37af	0.4802
61	0xad2c	-0.0808
62	0xb15f	-0.1678
63	0x2142	0.01027
64	0x36e5	0.431
65	0xb05d	-0.1364
66	0xad79	-0.0855
67	0x2f52	0.1144
68	0xb12c	-0.1616
69	0xaa22	-0.0479
70	0x2d46	0.0824
71	0xb40e	-0.2534
72	0x337b	0.2338
73	0x2507	0.01964
74	0xb5bf	-0.3591
75	0xac73	-0.0695
76	0x9b3a	-0.003529
77	0xaac6	-0.05292
78	0xa561	-0.02101
79	0x2b42	0.0567
80	0xb5a4	-0.3525
81	0xb4a8	-0.291
82	0x28de	0.03802
83	0xb72a	-0.4478
84	0x2f60	0.11523
85	0x305d	0.1364
86	0x2c8f	0.0712
87	0x3260	0.1992
88	0xb3da	-0.2454
89	0x2468	0.01721
90	0x3413	0.2546
91	0xb468	-0.2754
92	0x28e3	0.03818
93	0x323a	0.1946
94	0x2f81	0.11725
95	0xaa56	-0.0495
96	0xb3d4	-0.2446
97	0xadc8	-0.09033
98	0xa4dc	-0.01898
99	0xb1e6	-0.1843
100	0x3206	0.1882
101	0xaa37	-0.04855
102	0x269f	0.02586
103	0x23fb	0.01559
104	0xb083	-0.141
105	0xb098	-0.1436
106	0xb2cf	-0.2128
107	0x2da5	0.0882
108	0x3159	0.1671
109	0xb313	-0.2211
110	0xb4a5	-0.2903
111	0xb2e1	-0.215
112	0x2d87	0.08636
113	0xb247	-0.1962
114	0x3218	0.1904
115	0xae83	-0.10175
116	0x2c08	0.063
117	0x3152	0.1663
118	0x2934	0.04065
119	0x2d40	0.08203
120	0xaf9e	-0.119
121	0xb5a0	-0.3516
122	0xa65e	-0.02487
123	0xaa2e	-0.04828
124	0x30c0	0.1484
125	0xb3f1	-0.2482
126	0x32b1	0.2091
127	0xa619	-0.02382
128	0x3449	0.2678
129	0xa2c8	-0.013245
130	0xafbc	-0.12085
131	0x29a3	0.04404
132	0x3459	0.2717
133	0x34bc	0.296
134	0xb263	-0.1996
135	0x1dfe	0.00585
136	0xb178	-0.1709
137	0xa9fb	-0.04672
138	0xb454	-0.2705
139	0x3487	0.283
140	0x2d8d	0.08673
141	0x2ef0	0.1084
142	0x35b4	0.3564
143	0x2f3a	0.1129
144	0xb4aa	-0.2915
145	0xa85e	-0.03412
146	0xa765	-0.02888
147	0xac41	-0.06647
148	0x3407	0.2517
149	0x3243	0.1957
150	0xb025	-0.1295
151	0x32b9	0.2101
152	0xaf7b	-0.1169
153	0x2bfd	0.0624
154	0xa10c	-0.00986
155	0xae4d	-0.09845
156	0xaf30	-0.1123
157	0x2fee	0.1239
158	0x3289	0.2042
159	0xaf68	-0.1157
160	0xabf2	-0.06207
161	0x2bc8	0.0608
162	0x3831	0.524
163	0x2c9d	0.0721
164	0x34e1	0.305
165	0x2e3d	0.0975
166	0x319b	0.1752
167	0xb1bd	-0.1793
168	0xb560	-0.336
169	0xb1e1	-0.1837
170	0x368f	0.41
171	0x32b7	0.2098
172	0xaec8	-0.10596
173	0x32c3	0.2113
174	0x3127	0.161
175	0xaff9	-0.1246
176	0x2e4e	0.0985
177	0xb21e	-0.1912
178	0x3499	0.2874
179	0x2b53	0.05722
180	0xb5aa	-0.354
181	0xb17b	-0.1713
182	0x3471	0.2776
183	0x35d0	0.3633
184	0xafbb	-0.1208
185	0x35c2	0.3599
186	0xb326	-0.2234
187	0xb103	-0.1566
188	0x3012	0.1272
189	0x2f29	0.1119
190	0x346c	0.2764
191	0x35e5	0.3684
192	0x341e	0.2573
193	0xb3bb	-0.2416
194	0x296d	0.0424
195	0xb24d	-0.1969
196	0xb7bf	-0.4841
197	0xb406	-0.2515
198	0x3020	0.1289
199	0x2037	0.00823
200	0x9020	-0.0005035
201	0x2c9f	0.0722
202	0x33c5	0.2428
203	0x33c4	0.2427
204	0x3323	0.223
205	0xb45a	-0.272
206	0xabfa	-0.06232
207	0xb565	-0.3372
208	0xb4b1	-0.2932
209	0xb299	-0.2062
210	0x354d	0.3313
211	0xb177	-0.1708
212	0xb5a1	-0.3518
213	0xac3b	-0.0661
214	0x3313	0.2211
215	0xb035	-0.1315
216	0x2a55	0.04947
217	0x3474	0.2783
218	0x31ad	0.1774
219	0xa78d	-0.0295
220	0x2e30	0.0967
221	0xadec	-0.0925
222	0xaacf	-0.0532
223	0xae95	-0.10284
224	0xacb4	-0.0735
225	0x3028	0.1299
226	0xb188	-0.1729
227	0xb219	-0.1906
228	0x347f	0.281
229	0xaa47	-0.04904
230	0xaf32	-0.1124
231	0x1cc0	0.00464
232	0x2cfe	0.078
233	0x3475	0.2786
234	0xafa2	-0.11926
235	0x9e2a	-0.00602
236	0xa689	-0.02553
237	0xa824	-0.03235
238	0xb134	-0.1626
239	0x32fa	0.218
240	0xafe0	-0.12305
241	0x2819	0.032
242	0xb5d6	-0.3647
243	0x2ee5	0.1077
244	0x2c17	0.0639
245	0x2b6a	0.05792
246	0x24b8	0.01843
247	0xafa5	-0.11945
248	0x2e48	0.09814
249	0xb0b6	-0.1472
250	0x30a7	0.1454
251	0x9eb7	-0.006557
252	0x276e	0.02902
253	0xaa6c	-0.05017
254	0xafd9	-0.1226
255	0xb6c7	-0.4236

arith.constant16 f4 [128]
0	0xbe842628	-0.2581036
1	0xbe814646	-0.25248927
2	0xbf1f9b76	-0.6234659
3	0xbe7f5648	-0.24935257
4	0xbe902568	-0.2815354
5	0xbede8ecc	-0.4346832
6	0xbeb940ee	-0.3618235
7	0xbe6dc7ed	-0.23220797
8	0xbec6019e	-0.3867311
9	0xbea39eea	-0.3195718
10	0xbf8e25ac	-1.1105247
11	0xbe8e757d	-0.2782401
12	0xbe99de88	-0.3005259
13	0xbec427ac	-0.38311517
14	0xbf01a462	-0.50641453
15	0xbeef064e	-0.46684498
16	0xbf3625ba	-0.71151316
17	0xbede7132	-0.43445736
18	0xbeb20b7e	-0.34774393
19	0xbed1c2e8	-0.40969014
20	0xbe866360	-0.26247692
21	0xbe9f1b68	-0.31075597
22	0xbebf2fe8	-0.37341237
23	0xbe141a20	-0.14463091
24	0xbe88b88e	-0.26703304
25	0xbe49e62c	-0.1971671
26	0xbe86f985	-0.26362243
27	0xbe149a82	-0.14512065
28	0xbea81701	-0.3283005
29	0xbea20d0e	-0.31650585
30	0xbe521fb1	-0.20519902
31	0xbf2950e1	-0.66139036
32	0xbe95ee94	-0.29283583
33	0xbea9f3f4	-0.33193934
34	0xbf48e426	-0.78473127
35	0xbe11efae	-0.14251587
36	0xbf1f1960	-0.62148094
37	0xbeb76bde	-0.35824484
38	0xbe531fae	-0.20617554
39	0xbedfb8c8	-0.43695664
40	0xbec7c2f9	-0.3901594
41	0xbeb597af	-0.35467288
42	0xbecfbdc3	-0.40574464
43	0xbee63fbc	-0.449705
44	0xbe6e76da	-0.23287526
45	0xbe610c66	-0.21977386
46	0xbf2c39a4	-0.6727545
47	0xbec6fb6e	-0.388637
48	0xbe918b4c	-0.28426588
49	0xbeab8b91	-0.33504918
50	0xbe937cf8	-0.2880628
51	0xbdab5a72	-0.083668604
52	0xbe7d0024	-0.24707085
53	0xbea73f68	-0.32665563
54	0xbee82f9a	-0.45348817
55	0xbf0759de	-0.528715
56	0xbe93d1cd	-0.28871003
57	0xbe8e22a0	-0.27760792
58	0xbece4949	-0.40290287
59	0xbead7236	-0.338762
60	0xbe048302	-0.129406
61	0xbedfc672	-0.4370609
62	0xbe3f794a	-0.18698612
63	0xbf4ef57c	-0.8084333
64	0xbe18ff5f	-0.14941166
65	0xbedc14bc	-0.4298457
66	0xbed4e766	-0.41582793
67	0xbe7e9532	-0.24861601
68	0xbe8361ea	-0.2566064
69	0xbe7be2a9	-0.24598183
70	0xbea7f299	-0.32802275
71	0xbea618d3	-0.32440814
72	0xbeedf116	-0.46472996
73	0xbecbe942	-0.398264
74	0xbe5f2e54	-0.21795017
75	0xbedd572c	-0.4323057
76	0xbe4d4be0	-0.20048475
77	0xbedeb8e4	-0.43500435
78	0xbe825f90	-0.25463533
79	0xbf3b1326	-0.73076093
80	0xbed52a86	-0.41634005
81	0xbf14b01a	-0.5808121
82	0xbe4d1a20	-0.20029497
83	0xbda436c4	-0.08018258
84	0xbedb420d	-0.4282383
85	0xbec61393	-0.3868681
86	0xbe610a9d	-0.21976705
87	0xbea4a252	-0.3215509
88	0xbe51ba8e	-0.20481321
89	0xbebffe74	-0.3749882
90	0xbe85488e	-0.26031917
91	0xbe176749	-0.14785494
92	0xbe0e23ca	-0.1388084
93	0xbea4c2c8	-0.32179856
94	0xbed97b3c	-0.42476833
95	0xbee431ae	-0.44569153
96	0xbea2e658	-0.31816363
97	0xbf14ac2a	-0.580752
98	0xbece79e2	-0.40327364
99	0xbf2a6c87	-0.6657185
100	0xbddae66b	-0.1068848
101	0xbe8a0804	-0.2695924
102	0xbf2dc18c	-0.67873454
103	0xbdfbaac6	-0.12288432
104	0xbef5e8b8	-0.48029113
105	0xbe169019	-0.14703406
106	0xbe98aaff	-0.2981796
107	0xbf11dd80	-0.5697861
108	0xbf06e189	-0.5268789
109	0xbeb4a50d	-0.35282174
110	0xbdf96132	-0.12176742
111	0xbe9d41f0	-0.3071437
112	0xbe5e478e	-0.21706983
113	0xbee8bc02	-0.4545594
114	0xbeab9b16	-0.3351676
115	0xbeac237c	-0.33620822
116	0xbeaf1326	-0.34194297
117	0xbe88cd5b	-0.26719174
118	0xbe530b7a	-0.20609847
119	0xbf352e28	-0.70773554
120	0xbef97bf9	-0.48727396
121	0xbe59c822	-0.21267751
122	0xbe9e65b8	-0.3093698
123	0xbe3e52ae	-0.18586227
124	0xbf04adbf	-0.51827615
125	0xbf8cddf4	-1.1005235
126	0xbec31c1c	-0.38107383
127	0xbecaebc4	-0.39633

arith.constant17 f4 [128]
0	0x41444d4e	12.268873
1	0x412e467a	10.892206
2	0x4010d5d2	2.2630506
3	0x4149b5be	12.606871
4	0x40d281ed	6.57836
5	0x40523e12	3.2850385
6	0x41166339	9.399224
7	0x418ec5df	17.846617
8	0x40f2fb81	7.593201
9	0x41073932	8.451464
10	0x3f829e2f	1.0204524
11	0x4101182c	8.068401
12	0x4168c477	14.547965
13	0x4129a9b3	10.60393
14	0x402cee17	2.7020319
15	0x40333108	2.7998676
16	0x3fa477a6	1.2849014
17	0x402cf736	2.7025886
18	0x40cec590	6.4616165
19	0x40cfaa54	6.489542
20	0x414d7e30	12.8433075
21	0x416a7b15	14.655049
22	0x41551045	13.316472
23	0x41b9ba20	23.215881
24	0x416ae55b	14.680995
25	0x419f233b	19.892202
26	0x4187e019	16.984423
27	0x418b45b8	17.409042
28	0x41172917	9.447532
29	0x411a641b	9.64944
30	0x41a57342	20.681278
31	0x3fc935ec	1.5719581
32	0x41415644	12.083561
33	0x4117c79b	9.486232
34	0x3f5b3d6e	0.8564061
35	0x41a91085	21.133066
36	0x40301b60	2.7516708
37	0x41482b0e	12.510511
38	0x416128c4	14.072453
39	0x40776d72	3.866055
40	0x40e7cdcf	7.243873
41	0x41465045	12.394597
42	0x40bfb444	5.990755
43	0x40a4508b	5.134832
44	0x413b43dc	11.704067
45	0x41d4a7a6	26.58186
46	0x4008d023	2.1377037
47	0x40b14c23	5.540544
48	0x41047668	8.278908
49	0x40f91c66	7.7847166
50	0x41269e80	10.413696
51	0x41d2dc10	26.357452
52	0x412cdb6c	10.80357
53	0x411dd313	9.864032
54	0x40ad8b73	5.4232726
55	0x40967378	4.7015953
56	0x4146a3db	12.415004
57	0x415eace2	13.917208
58	0x40d9644b	6.793493
59	0x40cc26b6	6.3797255
60	0x41b23b03	22.278814
61	0x40bc2775	5.8798165
62	0x41a322ba	20.391956
63	0x3f782362	0.9692899
64	0x41911bea	18.13863
65	0x4086e551	4.2154927
66	0x411c7832	9.779345
67	0x4140a055	12.039144
68	0x410f51af	8.957442
69	0x415da530	13.852829
70	0x40c754ca	6.2291
71	0x415c6af9	13.776116
72	0x40f088c3	7.5166945
73	0x40d44abb	6.6341224
74	0x4122c0e5	10.172093
75	0x4111af3c	9.105282
76	0x41a1be8e	20.218044
77	0x4113309e	9.199369
78	0x413f35fa	11.950678
79	0x3fa9fa54	1.3279519
80	0x4039dafb	2.9039905
81	0x4017f575	2.3743565
82	0x41048b6f	8.284041
83	0x41d52ceb	26.646933
84	0x412a799b	10.654689
85	0x40dc7991	6.8898396
86	0x41b4cd65	22.60029
87	0x40fa3496	7.818919
88	0x413cb472	11.794054
89	0x4108efbe	8.558531
90	0x41511f96	13.070211
91	0x418dcad1	17.724031
92	0x41a2baf3	20.341284
93	0x4116811c	9.406521
94	0x40fa8c4e	7.829627
95	0x40817486	4.045474
96	0x40fbacc1	7.864838
97	0x4082a9e9	4.083241
98	0x40878dc5	4.236056
99	0x3fd86731	1.6906492
100	0x41b0db21	22.106997
101	0x40c22d03	6.0679946
102	0x40084540	2.1292267
103	0x41c992e9	25.196733
104	0x40214f38	2.5204601
105	0x419713f9	18.884752
106	0x415fb2a4	13.981113
107	0x400669e9	2.1002142
108	0x40597996	3.398046
109	0x41352a24	11.322788
110	0x41e64fcf	28.788969
111	0x40b853d5	5.7602334
112	0x4195b49a	18.713184
113	0x410c245c	8.758877
114	0x410c2d9b	8.761134
115	0x40d558bd	6.6670823
116	0x4121dc2e	10.116255
117	0x41867bb5	16.810404
118	0x4179a1e0	15.60202
119	0x4044abae	3.0729785
120	0x40aad70f	5.3387523
121	0x41367578	11.403679
122	0x4112f568	9.184914
123	0x4188e13b	17.109976
124	0x40d696af	6.705894
125	0x3f4fed72	0.8122169
126	0x40b79fca	5.7382555
127	0x40a6c8b8	5.212002

arith.constant18 f4 [32]
0	0xbe039f7b	-0.12853806
1	0xc001e41b	-2.0295475
2	0xbf1212a7	-0.5705971
3	0xbf441903	-0.76600665
4	0xc09106a5	-4.532061
5	0x3e183696	0.14864573
6	0x3eaca029	0.33715943
7	0xbf409802	-0.75231946
8	0xbf779c97	-0.9672331
9	0xbeac3096	-0.33630818
10	0xbe05cd4e	-0.13066599
11	0xbf87949c	-1.0592227
12	0xc008683d	-2.1313622
13	0xbfc8b363	-1.5679744
14	0x3b354ba7	0.00276635
15	0xbfd3f83d	-1.6560131
16	0xbde84ea3	-0.11343124
17	0xbd964686	-0.0733767
18	0xbfdf4d1b	-1.7445406
19	0xc03a483f	-2.9106596
20	0xbff09d8a	-1.8798077
21	0xbfd0460d	-1.6271378
22	0xbf3f761b	-0.7478959
23	0xbf3f2786	-0.7466968
24	0xbded3c70	-0.11583793
25	0xbf34e076	-0.70655
26	0xbec67586	-0.38761538
27	0xbf021cb6	-0.5082506
28	0xbeef54a0	-0.4674425
29	0xc06f69c5	-3.7408307
30	0xc005af09	-2.0888083
31	0xbfc91712	-1.5710166

arith.constant19 f4 [32]
0	0x41c162c4	24.173225
1	0x417b9fa6	15.726477
2	0x413853ce	11.52046
3	0x412cc088	10.797005
4	0x41b590be	22.695675
5	0x41fc2147	31.516249
6	0x41f5c359	30.720385
7	0x41b3ecde	22.490658
8	0x417f6847	15.962958
9	0x41874271	16.907442
10	0x41c1ab7f	24.208738
11	0x414072fe	12.028074
12	0x41694827	14.580115
13	0x413d3468	11.8252945
14	0x41e559da	28.668873
15	0x4173682f	15.212935
16	0x41b8156d	23.010462
17	0x41d4fbfc	26.62304
18	0x418fe927	17.988844
19	0x41a535dd	20.6513
20	0x41b20016	22.250042
21	0x41b16c6d	22.177942
22	0x4196e265	18.860544
23	0x41374ebb	11.456721
24	0x4186cc9c	16.849907
25	0x41705961	15.021821
26	0x41fe1bbc	31.763542
27	0x4137d738	11.490044
28	0x4138a3a3	11.53995
29	0x4185987b	16.699453
30	0x41696f59	14.5896845
31	0x41678f71	14.47252

arith.constant20 f4 [64]
0	0xbf53fbb0	-0.8280592
1	0xbf6d52db	-0.9270455
2	0xbf1c8902	-0.6114656
3	0xbf526c26	-0.8219627
4	0xbf261ae4	-0.6488478
5	0xbf27d36c	-0.6555698
6	0xbed6c76c	-0.41949022
7	0xbefe3b4b	-0.49654612
8	0xbe6ba160	-0.23010778
9	0xbf540974	-0.82826924
10	0xbee8806e	-0.45410484
11	0xbf1759e5	-0.59121543
12	0xbe9a24a9	-0.30106094
13	0xbe6ffcdf	-0.23436306
14	0xbf8acf33	-1.0844482
15	0xbf1d8ae2	-0.61540043
16	0xbeebf30e	-0.46083874
17	0xbf3dd2b0	-0.7414961
18	0xbf5ff392	-0.87481034
19	0xbf5a3940	-0.85243607
20	0xbf1639f7	-0.586822
21	0xbe251b53	-0.16123705
22	0xbeee5424	-0.4654857
23	0xbf5b22f6	-0.8560022
24	0xbef5c0ce	-0.4799866
25	0xbf23821c	-0.63870406
26	0xbf2c5c03	-0.673279
27	0xbf53b40f	-0.8269662
28	0xbe86a028	-0.26294065
29	0xbf653512	-0.89534104
30	0xbecec9b6	-0.40388268
31	0xbec8ed7b	-0.39243683
32	0xbeb27f49	-0.34862736
33	0xbf5d5ac7	-0.8646664
34	0xbf33af94	-0.70189786
35	0xbeb43307	-0.3519518
36	0xbf5070d2	-0.8142215
37	0xbefa278b	-0.48858294
38	0xbeb632ee	-0.3558573
39	0xbf88dd14	-1.0692468
40	0xbf00bb70	-0.50286007
41	0xbf543329	-0.82890564
42	0xbe8fddbc	-0.28098857
43	0xbf293e4f	-0.661107
44	0xbe34d73c	-0.1766023
45	0xbf050ad9	-0.5196968
46	0xbe9e097a	-0.30866605
47	0xbf16eb2a	-0.5895258
48	0xbe2687f0	-0.16262794
49	0xbd8c5c8e	-0.06853591
50	0xbee3f41a	-0.44522172
51	0xbf0d1236	-0.5510591
52	0xbf09aef3	-0.53782576
53	0xbf525fac	-0.82177234
54	0xbe9f882b	-0.31158575
55	0xbedfbf09	-0.43700436
56	0xbf90e77f	-1.1320647
57	0xbf111d06	-0.5668491
58	0xbf2e2e90	-0.680398
59	0xbf65dcac	-0.89789844
60	0xbe87cc0c	-0.26522863
61	0xbf0e9388	-0.55693865
62	0xbe8b7322	-0.27236277
63	0xbf7f817c	-0.9980695

arith.constant21 f4 [64]
0	0x400aa018	2.1660213
1	0x40736991	3.8033183
2	0x4007dc37	2.1228158
3	0x4004a0fe	2.0723262
4	0x41137e0b	9.218272
5	0x4059c3e6	3.4025817
6	0x406b432f	3.6759756
7	0x4089963c	4.299589
8	0x4041407c	3.0195608
9	0x403b2a9b	2.9244754
10	0x406156fe	3.5209346
11	0x4098e7f3	4.778314
12	0x409a8122	4.8282633
13	0x40cbb522	6.365861
14	0x40903a84	4.507143
15	0x405ff614	3.4993944
16	0x408f701d	4.4824357
17	0x40a34204	5.1018085
18	0x402cbd60	2.6990585
19	0x40ede243	7.43387
20	0x402e1f79	2.720671
21	0x408086e1	4.0164647
22	0x3fe80ab2	1.8128264
23	0x407fc8c0	3.9966278
24	0x40779e6d	3.8690445
25	0x3fd51c89	1.6649333
26	0x40719a7c	3.775054
27	0x40ba5653	5.8230376
28	0x404d4fd2	3.2079968
29	0x403b2e2f	2.9246938
30	0x4000d049	2.0127127
31	0x408838b9	4.256924
32	0x411a7f6a	9.656107
33	0x401dd132	2.4658933
34	0x40ae4624	5.446062
35	0x401553c6	2.3332381
36	0x40ce6fda	6.4511538
37	0x409c88d3	4.891702
38	0x40903709	4.506718
39	0x4021628c	2.5216398
40	0x3fd21ae3	1.6414455
41	0x407b9cba	3.9314408
42	0x40a1abba	5.0522127
43	0x4040fd9d	3.0154793
44	0x4136b677	11.419547
45	0x407a1afb	3.9078968
46	0x404f6503	3.2405403
47	0x4031180b	2.7670925
48	0x41044a94	8.268208
49	0x40d3ea78	6.6223717
50	0x4096e2b7	4.715175
51	0x407ec00f	3.9804723
52	0x407a2af6	3.9088721
53	0x40471a1b	3.1109684
54	0x40f7fa11	7.7492757
55	0x407ec0bf	3.9805143
56	0x401d2d78	2.4559002
57	0x40d38daf	6.6110454
58	0x4093f443	4.623567
59	0x40959ffe	4.6757803
60	0x40446d15	3.0691578
61	0x40cdec82	6.4351206
62	0x409fec69	4.9976087
63	0x4086fd74	4.218439
